…
I0418 21:47:25.919745 16791 base_data_layer.cpp:52] LayerSetUp11
I0418 21:47:25.919754 16791 base_data_layer.cpp:24] LayerSetUp
I0418 21:47:25.919764 16791 data_transformer.cpp:25] Loading mean file from: data/ilsvrc12/imagenet_mean.binaryproto
I0418 21:47:25.945724 16795 db_lmdb.cpp:38] Opened lmdb examples/imagenet/ilsvrc12_train_lmdb
I0418 21:47:25.970948 16791 data_layer.cpp:30] DataLayerSetUp
I0418 21:47:25.971055 16791 data_layer.cpp:45] output data size: 256,3,227,227
I0418 21:47:25.971108 16791 base_data_layer.cpp:54] LayerSetUp12
I0418 21:47:26.321424 16791 net.cpp:152] Setting up data
I0418 21:47:26.321486 16791 net.cpp:159] Top shape: 256 3 227 227 (39574272)
I0418 21:47:26.321496 16791 net.cpp:159] Top shape: 256 (256)
I0418 21:47:26.321501 16791 net.cpp:167] Memory required for data: 158298112
I0418 21:47:26.321514 16791 layer_factory.hpp:77] Creating layer conv1
I0418 21:47:26.321545 16791 net.cpp:108] Creating Layer conv1
I0418 21:47:26.321554 16791 net.cpp:456] conv1 <- data
I0418 21:47:26.321573 16791 net.cpp:413] conv1 -> conv1
I0418 21:47:26.475373 16791 net.cpp:152] Setting up conv1
I0418 21:47:26.475417 16791 net.cpp:159] Top shape: 256 96 55 55 (74342400)
I0418 21:47:26.475424 16791 net.cpp:167] Memory required for data: 455667712
I0418 21:47:26.475446 16791 layer_factory.hpp:77] Creating layer relu1
I0418 21:47:26.475462 16791 net.cpp:108] Creating Layer relu1
I0418 21:47:26.475469 16791 net.cpp:456] relu1 <- conv1
I0418 21:47:26.475477 16791 net.cpp:399] relu1 -> conv1 (in-place)
I0418 21:47:26.475646 16791 net.cpp:152] Setting up relu1
I0418 21:47:26.475657 16791 net.cpp:159] Top shape: 256 96 55 55 (74342400)
I0418 21:47:26.475662 16791 net.cpp:167] Memory required for data: 753037312
I0418 21:47:26.475667 16791 layer_factory.hpp:77] Creating layer pool1
I0418 21:47:26.475679 16791 net.cpp:108] Creating Layer pool1
I0418 21:47:26.475685 16791 net.cpp:456] pool1 <- conv1
I0418 21:47:26.475692 16791 net.cpp:413] pool1 -> pool1
I0418 21:47:26.475749 16791 net.cpp:152] Setting up pool1
I0418 21:47:26.475757 16791 net.cpp:159] Top shape: 256 96 27 27 (17915904)
I0418 21:47:26.475761 16791 net.cpp:167] Memory required for data: 824700928
I0418 21:47:26.475766 16791 layer_factory.hpp:77] Creating layer norm1
I0418 21:47:26.475782 16791 net.cpp:108] Creating Layer norm1
I0418 21:47:26.475788 16791 net.cpp:456] norm1 <- pool1
I0418 21:47:26.475795 16791 net.cpp:413] norm1 -> norm1
I0418 21:47:26.476075 16791 net.cpp:152] Setting up norm1
I0418 21:47:26.476090 16791 net.cpp:159] Top shape: 256 96 27 27 (17915904)
I0418 21:47:26.476096 16791 net.cpp:167] Memory required for data: 896364544
I0418 21:47:26.476101 16791 layer_factory.hpp:77] Creating layer conv2
I0418 21:47:26.476117 16791 net.cpp:108] Creating Layer conv2
I0418 21:47:26.476124 16791 net.cpp:456] conv2 <- norm1
I0418 21:47:26.476140 16791 net.cpp:413] conv2 -> conv2
I0418 21:47:26.486918 16791 net.cpp:152] Setting up conv2
I0418 21:47:26.486937 16791 net.cpp:159] Top shape: 256 256 27 27 (47775744)
I0418 21:47:26.486943 16791 net.cpp:167] Memory required for data: 1087467520
I0418 21:47:26.486953 16791 layer_factory.hpp:77] Creating layer relu2
I0418 21:47:26.486961 16791 net.cpp:108] Creating Layer relu2
I0418 21:47:26.486968 16791 net.cpp:456] relu2 <- conv2
I0418 21:47:26.486979 16791 net.cpp:399] relu2 -> conv2 (in-place)
I0418 21:47:26.487149 16791 net.cpp:152] Setting up relu2
I0418 21:47:26.487160 16791 net.cpp:159] Top shape: 256 256 27 27 (47775744)
I0418 21:47:26.487165 16791 net.cpp:167] Memory required for data: 1278570496
I0418 21:47:26.487170 16791 layer_factory.hpp:77] Creating layer pool2
I0418 21:47:26.487179 16791 net.cpp:108] Creating Layer pool2
I0418 21:47:26.487184 16791 net.cpp:456] pool2 <- conv2
I0418 21:47:26.487190 16791 net.cpp:413] pool2 -> pool2
I0418 21:47:26.487229 16791 net.cpp:152] Setting up pool2
I0418 21:47:26.487238 16791 net.cpp:159] Top shape: 256 256 13 13 (11075584)
I0418 21:47:26.487242 16791 net.cpp:167] Memory required for data: 1322872832
I0418 21:47:26.487247 16791 layer_factory.hpp:77] Creating layer norm2
I0418 21:47:26.487257 16791 net.cpp:108] Creating Layer norm2
I0418 21:47:26.487262 16791 net.cpp:456] norm2 <- pool2
I0418 21:47:26.487270 16791 net.cpp:413] norm2 -> norm2
I0418 21:47:26.487553 16791 net.cpp:152] Setting up norm2
I0418 21:47:26.487568 16791 net.cpp:159] Top shape: 256 256 13 13 (11075584)
I0418 21:47:26.487573 16791 net.cpp:167] Memory required for data: 1367175168
I0418 21:47:26.487578 16791 layer_factory.hpp:77] Creating layer conv3
I0418 21:47:26.487591 16791 net.cpp:108] Creating Layer conv3
I0418 21:47:26.487597 16791 net.cpp:456] conv3 <- norm2
I0418 21:47:26.487604 16791 net.cpp:413] conv3 -> conv3
I0418 21:47:26.513584 16791 net.cpp:152] Setting up conv3
I0418 21:47:26.513607 16791 net.cpp:159] Top shape: 256 384 13 13 (16613376)
I0418 21:47:26.513613 16791 net.cpp:167] Memory required for data: 1433628672
I0418 21:47:26.513628 16791 layer_factory.hpp:77] Creating layer relu3
I0418 21:47:26.513636 16791 net.cpp:108] Creating Layer relu3
I0418 21:47:26.513641 16791 net.cpp:456] relu3 <- conv3
I0418 21:47:26.513648 16791 net.cpp:399] relu3 -> conv3 (in-place)
I0418 21:47:26.513897 16791 net.cpp:152] Setting up relu3
I0418 21:47:26.513914 16791 net.cpp:159] Top shape: 256 384 13 13 (16613376)
I0418 21:47:26.513919 16791 net.cpp:167] Memory required for data: 1500082176
I0418 21:47:26.513924 16791 layer_factory.hpp:77] Creating layer conv4
I0418 21:47:26.513936 16791 net.cpp:108] Creating Layer conv4
I0418 21:47:26.513941 16791 net.cpp:456] conv4 <- conv3
I0418 21:47:26.513950 16791 net.cpp:413] conv4 -> conv4
I0418 21:47:26.534145 16791 net.cpp:152] Setting up conv4
I0418 21:47:26.534162 16791 net.cpp:159] Top shape: 256 384 13 13 (16613376)
I0418 21:47:26.534168 16791 net.cpp:167] Memory required for data: 1566535680
I0418 21:47:26.534176 16791 layer_factory.hpp:77] Creating layer relu4
I0418 21:47:26.534186 16791 net.cpp:108] Creating Layer relu4
I0418 21:47:26.534193 16791 net.cpp:456] relu4 <- conv4
I0418 21:47:26.534198 16791 net.cpp:399] relu4 -> conv4 (in-place)
I0418 21:47:26.534368 16791 net.cpp:152] Setting up relu4
I0418 21:47:26.534382 16791 net.cpp:159] Top shape: 256 384 13 13 (16613376)
I0418 21:47:26.534387 16791 net.cpp:167] Memory required for data: 1632989184
I0418 21:47:26.534392 16791 layer_factory.hpp:77] Creating layer conv5
I0418 21:47:26.534405 16791 net.cpp:108] Creating Layer conv5
I0418 21:47:26.534410 16791 net.cpp:456] conv5 <- conv4
I0418 21:47:26.534418 16791 net.cpp:413] conv5 -> conv5
I0418 21:47:26.550240 16791 net.cpp:152] Setting up conv5
I0418 21:47:26.550271 16791 net.cpp:159] Top shape: 256 256 13 13 (11075584)
I0418 21:47:26.550277 16791 net.cpp:167] Memory required for data: 1677291520
I0418 21:47:26.550292 16791 layer_factory.hpp:77] Creating layer relu5
I0418 21:47:26.550328 16791 net.cpp:108] Creating Layer relu5
I0418 21:47:26.550345 16791 net.cpp:456] relu5 <- conv5
I0418 21:47:26.550366 16791 net.cpp:399] relu5 -> conv5 (in-place)
I0418 21:47:26.550534 16791 net.cpp:152] Setting up relu5
I0418 21:47:26.550546 16791 net.cpp:159] Top shape: 256 256 13 13 (11075584)
I0418 21:47:26.550551 16791 net.cpp:167] Memory required for data: 1721593856
I0418 21:47:26.550556 16791 layer_factory.hpp:77] Creating layer pool5
I0418 21:47:26.550565 16791 net.cpp:108] Creating Layer pool5
I0418 21:47:26.550570 16791 net.cpp:456] pool5 <- conv5
I0418 21:47:26.550580 16791 net.cpp:413] pool5 -> pool5
I0418 21:47:26.550652 16791 net.cpp:152] Setting up pool5
I0418 21:47:26.550662 16791 net.cpp:159] Top shape: 256 256 6 6 (2359296)
I0418 21:47:26.550668 16791 net.cpp:167] Memory required for data: 1731031040
I0418 21:47:26.550673 16791 layer_factory.hpp:77] Creating layer fc6
I0418 21:47:26.550695 16791 net.cpp:108] Creating Layer fc6
I0418 21:47:26.550701 16791 net.cpp:456] fc6 <- pool5
I0418 21:47:26.550710 16791 net.cpp:413] fc6 -> fc6
I0418 21:47:26.684712 16797 blocking_queue.cpp:50] Waiting for data
I0418 21:47:27.666446 16791 net.cpp:152] Setting up fc6
I0418 21:47:27.666501 16791 net.cpp:159] Top shape: 256 4096 (1048576)
I0418 21:47:27.666508 16791 net.cpp:167] Memory required for data: 1735225344
I0418 21:47:27.666520 16791 layer_factory.hpp:77] Creating layer relu6
I0418 21:47:27.666535 16791 net.cpp:108] Creating Layer relu6
I0418 21:47:27.666541 16791 net.cpp:456] relu6 <- fc6
I0418 21:47:27.666550 16791 net.cpp:399] relu6 -> fc6 (in-place)
I0418 21:47:27.666993 16791 net.cpp:152] Setting up relu6
I0418 21:47:27.667009 16791 net.cpp:159] Top shape: 256 4096 (1048576)
I0418 21:47:27.667016 16791 net.cpp:167] Memory required for data: 1739419648
I0418 21:47:27.667021 16791 layer_factory.hpp:77] Creating layer drop6
I0418 21:47:27.667037 16791 net.cpp:108] Creating Layer drop6
I0418 21:47:27.667042 16791 net.cpp:456] drop6 <- fc6
I0418 21:47:27.667048 16791 net.cpp:399] drop6 -> fc6 (in-place)
I0418 21:47:27.667093 16791 net.cpp:152] Setting up drop6
I0418 21:47:27.667104 16791 net.cpp:159] Top shape: 256 4096 (1048576)
I0418 21:47:27.667110 16791 net.cpp:167] Memory required for data: 1743613952
I0418 21:47:27.667115 16791 layer_factory.hpp:77] Creating layer fc7
I0418 21:47:27.667129 16791 net.cpp:108] Creating Layer fc7
I0418 21:47:27.667135 16791 net.cpp:456] fc7 <- fc6
I0418 21:47:27.667145 16791 net.cpp:413] fc7 -> fc7
I0418 21:47:28.165055 16791 net.cpp:152] Setting up fc7
I0418 21:47:28.165102 16791 net.cpp:159] Top shape: 256 4096 (1048576)
I0418 21:47:28.165107 16791 net.cpp:167] Memory required for data: 1747808256
I0418 21:47:28.165119 16791 layer_factory.hpp:77] Creating layer relu7
I0418 21:47:28.165132 16791 net.cpp:108] Creating Layer relu7
I0418 21:47:28.165139 16791 net.cpp:456] relu7 <- fc7
I0418 21:47:28.165148 16791 net.cpp:399] relu7 -> fc7 (in-place)
I0418 21:47:28.165377 16791 net.cpp:152] Setting up relu7
I0418 21:47:28.165390 16791 net.cpp:159] Top shape: 256 4096 (1048576)
I0418 21:47:28.165395 16791 net.cpp:167] Memory required for data: 1752002560
I0418 21:47:28.165400 16791 layer_factory.hpp:77] Creating layer drop7
I0418 21:47:28.165412 16791 net.cpp:108] Creating Layer drop7
I0418 21:47:28.165418 16791 net.cpp:456] drop7 <- fc7
I0418 21:47:28.165424 16791 net.cpp:399] drop7 -> fc7 (in-place)
I0418 21:47:28.165449 16791 net.cpp:152] Setting up drop7
I0418 21:47:28.165458 16791 net.cpp:159] Top shape: 256 4096 (1048576)
I0418 21:47:28.165463 16791 net.cpp:167] Memory required for data: 1756196864
I0418 21:47:28.165469 16791 layer_factory.hpp:77] Creating layer fc8
I0418 21:47:28.165482 16791 net.cpp:108] Creating Layer fc8
I0418 21:47:28.165493 16791 net.cpp:456] fc8 <- fc7
I0418 21:47:28.165503 16791 net.cpp:413] fc8 -> fc8
I0418 21:47:28.285934 16791 net.cpp:152] Setting up fc8
I0418 21:47:28.285977 16791 net.cpp:159] Top shape: 256 1000 (256000)
I0418 21:47:28.285984 16791 net.cpp:167] Memory required for data: 1757220864
I0418 21:47:28.285995 16791 layer_factory.hpp:77] Creating layer loss
I0418 21:47:28.286031 16791 net.cpp:108] Creating Layer loss
I0418 21:47:28.286051 16791 net.cpp:456] loss <- fc8
I0418 21:47:28.286058 16791 net.cpp:456] loss <- label
I0418 21:47:28.286067 16791 net.cpp:413] loss -> loss
I0418 21:47:28.286089 16791 layer_factory.hpp:77] Creating layer loss
…
I0418 21:47:28.288702 16791 base_data_layer.cpp:52] LayerSetUp11
I0418 21:47:28.288707 16791 base_data_layer.cpp:24] LayerSetUp
I0418 21:47:28.288712 16791 data_transformer.cpp:25] Loading mean file from: data/ilsvrc12/imagenet_mean.binaryproto
I0418 21:47:28.291402 16791 data_layer.cpp:30] DataLayerSetUp
I0418 21:47:28.300745 16799 db_lmdb.cpp:38] Opened lmdb examples/imagenet/ilsvrc12_val_lmdb
I0418 21:47:28.322788 16791 data_layer.cpp:45] output data size: 50,3,227,227
I0418 21:47:28.322937 16791 base_data_layer.cpp:54] LayerSetUp12
I0418 21:47:28.441675 16791 net.cpp:152] Setting up data
I0418 21:47:28.441728 16791 net.cpp:159] Top shape: 50 3 227 227 (7729350)
I0418 21:47:28.441737 16791 net.cpp:159] Top shape: 50 (50)
I0418 21:47:28.441742 16791 net.cpp:167] Memory required for data: 30917600
I0418 21:47:28.441752 16791 layer_factory.hpp:77] Creating layer label_data_1_split
I0418 21:47:28.441778 16791 net.cpp:108] Creating Layer label_data_1_split
I0418 21:47:28.441798 16791 net.cpp:456] label_data_1_split <- label
I0418 21:47:28.441809 16791 net.cpp:413] label_data_1_split -> label_data_1_split_0
I0418 21:47:28.441823 16791 net.cpp:413] label_data_1_split -> label_data_1_split_1
I0418 21:47:28.442193 16791 net.cpp:152] Setting up label_data_1_split
I0418 21:47:28.442261 16791 net.cpp:159] Top shape: 50 (50)
I0418 21:47:28.442278 16791 net.cpp:159] Top shape: 50 (50)
I0418 21:47:28.442291 16791 net.cpp:167] Memory required for data: 30918000
I0418 21:47:28.442306 16791 layer_factory.hpp:77] Creating layer conv1
I0418 21:47:28.442343 16791 net.cpp:108] Creating Layer conv1
I0418 21:47:28.442358 16791 net.cpp:456] conv1 <- data
I0418 21:47:28.442380 16791 net.cpp:413] conv1 -> conv1
I0418 21:47:28.452986 16791 net.cpp:152] Setting up conv1
I0418 21:47:28.453033 16791 net.cpp:159] Top shape: 50 96 55 55 (14520000)
I0418 21:47:28.453048 16791 net.cpp:167] Memory required for data: 88998000
I0418 21:47:28.453078 16791 layer_factory.hpp:77] Creating layer relu1
I0418 21:47:28.453099 16791 net.cpp:108] Creating Layer relu1
I0418 21:47:28.453114 16791 net.cpp:456] relu1 <- conv1
I0418 21:47:28.453130 16791 net.cpp:399] relu1 -> conv1 (in-place)
I0418 21:47:28.453508 16791 net.cpp:152] Setting up relu1
I0418 21:47:28.453536 16791 net.cpp:159] Top shape: 50 96 55 55 (14520000)
I0418 21:47:28.453548 16791 net.cpp:167] Memory required for data: 147078000
I0418 21:47:28.453562 16791 layer_factory.hpp:77] Creating layer pool1
I0418 21:47:28.453583 16791 net.cpp:108] Creating Layer pool1
I0418 21:47:28.453596 16791 net.cpp:456] pool1 <- conv1
I0418 21:47:28.453613 16791 net.cpp:413] pool1 -> pool1
I0418 21:47:28.453709 16791 net.cpp:152] Setting up pool1
I0418 21:47:28.453734 16791 net.cpp:159] Top shape: 50 96 27 27 (3499200)
I0418 21:47:28.453747 16791 net.cpp:167] Memory required for data: 161074800
I0418 21:47:28.453758 16791 layer_factory.hpp:77] Creating layer norm1
I0418 21:47:28.453778 16791 net.cpp:108] Creating Layer norm1
I0418 21:47:28.453794 16791 net.cpp:456] norm1 <- pool1
I0418 21:47:28.453810 16791 net.cpp:413] norm1 -> norm1
I0418 21:47:28.454435 16791 net.cpp:152] Setting up norm1
I0418 21:47:28.454469 16791 net.cpp:159] Top shape: 50 96 27 27 (3499200)
I0418 21:47:28.454483 16791 net.cpp:167] Memory required for data: 175071600
I0418 21:47:28.454495 16791 layer_factory.hpp:77] Creating layer conv2
I0418 21:47:28.454522 16791 net.cpp:108] Creating Layer conv2
I0418 21:47:28.454536 16791 net.cpp:456] conv2 <- norm1
I0418 21:47:28.454556 16791 net.cpp:413] conv2 -> conv2
I0418 21:47:28.474267 16791 net.cpp:152] Setting up conv2
I0418 21:47:28.474311 16791 net.cpp:159] Top shape: 50 256 27 27 (9331200)
I0418 21:47:28.474319 16791 net.cpp:167] Memory required for data: 212396400
I0418 21:47:28.474339 16791 layer_factory.hpp:77] Creating layer relu2
I0418 21:47:28.474354 16791 net.cpp:108] Creating Layer relu2
I0418 21:47:28.474362 16791 net.cpp:456] relu2 <- conv2
I0418 21:47:28.474373 16791 net.cpp:399] relu2 -> conv2 (in-place)
I0418 21:47:28.474728 16791 net.cpp:152] Setting up relu2
I0418 21:47:28.474746 16791 net.cpp:159] Top shape: 50 256 27 27 (9331200)
I0418 21:47:28.474753 16791 net.cpp:167] Memory required for data: 249721200
I0418 21:47:28.474761 16791 layer_factory.hpp:77] Creating layer pool2
I0418 21:47:28.474776 16791 net.cpp:108] Creating Layer pool2
I0418 21:47:28.474782 16791 net.cpp:456] pool2 <- conv2
I0418 21:47:28.474793 16791 net.cpp:413] pool2 -> pool2
I0418 21:47:28.474856 16791 net.cpp:152] Setting up pool2
I0418 21:47:28.474869 16791 net.cpp:159] Top shape: 50 256 13 13 (2163200)
I0418 21:47:28.474875 16791 net.cpp:167] Memory required for data: 258374000
I0418 21:47:28.474881 16791 layer_factory.hpp:77] Creating layer norm2
I0418 21:47:28.474894 16791 net.cpp:108] Creating Layer norm2
I0418 21:47:28.474900 16791 net.cpp:456] norm2 <- pool2
I0418 21:47:28.474910 16791 net.cpp:413] norm2 -> norm2
I0418 21:47:28.475141 16791 net.cpp:152] Setting up norm2
I0418 21:47:28.475164 16791 net.cpp:159] Top shape: 50 256 13 13 (2163200)
I0418 21:47:28.475188 16791 net.cpp:167] Memory required for data: 267026800
I0418 21:47:28.475194 16791 layer_factory.hpp:77] Creating layer conv3
I0418 21:47:28.475210 16791 net.cpp:108] Creating Layer conv3
I0418 21:47:28.475217 16791 net.cpp:456] conv3 <- norm2
I0418 21:47:28.475229 16791 net.cpp:413] conv3 -> conv3
I0418 21:47:28.510244 16791 net.cpp:152] Setting up conv3
I0418 21:47:28.510290 16791 net.cpp:159] Top shape: 50 384 13 13 (3244800)
I0418 21:47:28.510298 16791 net.cpp:167] Memory required for data: 280006000
I0418 21:47:28.510318 16791 layer_factory.hpp:77] Creating layer relu3
I0418 21:47:28.510334 16791 net.cpp:108] Creating Layer relu3
I0418 21:47:28.510342 16791 net.cpp:456] relu3 <- conv3
I0418 21:47:28.510354 16791 net.cpp:399] relu3 -> conv3 (in-place)
I0418 21:47:28.510679 16791 net.cpp:152] Setting up relu3
I0418 21:47:28.510697 16791 net.cpp:159] Top shape: 50 384 13 13 (3244800)
I0418 21:47:28.510704 16791 net.cpp:167] Memory required for data: 292985200
I0418 21:47:28.510711 16791 layer_factory.hpp:77] Creating layer conv4
I0418 21:47:28.510726 16791 net.cpp:108] Creating Layer conv4
I0418 21:47:28.510735 16791 net.cpp:456] conv4 <- conv3
I0418 21:47:28.510745 16791 net.cpp:413] conv4 -> conv4
I0418 21:47:28.538058 16791 net.cpp:152] Setting up conv4
I0418 21:47:28.538105 16791 net.cpp:159] Top shape: 50 384 13 13 (3244800)
I0418 21:47:28.538113 16791 net.cpp:167] Memory required for data: 305964400
I0418 21:47:28.538126 16791 layer_factory.hpp:77] Creating layer relu4
I0418 21:47:28.538142 16791 net.cpp:108] Creating Layer relu4
I0418 21:47:28.538151 16791 net.cpp:456] relu4 <- conv4
I0418 21:47:28.538162 16791 net.cpp:399] relu4 -> conv4 (in-place)
I0418 21:47:28.538504 16791 net.cpp:152] Setting up relu4
I0418 21:47:28.538523 16791 net.cpp:159] Top shape: 50 384 13 13 (3244800)
I0418 21:47:28.538530 16791 net.cpp:167] Memory required for data: 318943600
I0418 21:47:28.538537 16791 layer_factory.hpp:77] Creating layer conv5
I0418 21:47:28.538561 16791 net.cpp:108] Creating Layer conv5
I0418 21:47:28.538569 16791 net.cpp:456] conv5 <- conv4
I0418 21:47:28.538580 16791 net.cpp:413] conv5 -> conv5
I0418 21:47:28.557492 16791 net.cpp:152] Setting up conv5
I0418 21:47:28.557539 16791 net.cpp:159] Top shape: 50 256 13 13 (2163200)
I0418 21:47:28.557548 16791 net.cpp:167] Memory required for data: 327596400
I0418 21:47:28.557567 16791 layer_factory.hpp:77] Creating layer relu5
I0418 21:47:28.557584 16791 net.cpp:108] Creating Layer relu5
I0418 21:47:28.557592 16791 net.cpp:456] relu5 <- conv5
I0418 21:47:28.557603 16791 net.cpp:399] relu5 -> conv5 (in-place)
I0418 21:47:28.557802 16791 net.cpp:152] Setting up relu5
I0418 21:47:28.557817 16791 net.cpp:159] Top shape: 50 256 13 13 (2163200)
I0418 21:47:28.557824 16791 net.cpp:167] Memory required for data: 336249200
I0418 21:47:28.557831 16791 layer_factory.hpp:77] Creating layer pool5
I0418 21:47:28.557847 16791 net.cpp:108] Creating Layer pool5
I0418 21:47:28.557853 16791 net.cpp:456] pool5 <- conv5
I0418 21:47:28.557863 16791 net.cpp:413] pool5 -> pool5
I0418 21:47:28.557924 16791 net.cpp:152] Setting up pool5
I0418 21:47:28.557935 16791 net.cpp:159] Top shape: 50 256 6 6 (460800)
I0418 21:47:28.557941 16791 net.cpp:167] Memory required for data: 338092400
I0418 21:47:28.557947 16791 layer_factory.hpp:77] Creating layer fc6
I0418 21:47:28.557960 16791 net.cpp:108] Creating Layer fc6
I0418 21:47:28.557967 16791 net.cpp:456] fc6 <- pool5
I0418 21:47:28.557977 16791 net.cpp:413] fc6 -> fc6
I0418 21:47:29.737432 16791 net.cpp:152] Setting up fc6
I0418 21:47:29.737493 16791 net.cpp:159] Top shape: 50 4096 (204800)
I0418 21:47:29.737498 16791 net.cpp:167] Memory required for data: 338911600
I0418 21:47:29.737516 16791 layer_factory.hpp:77] Creating layer relu6
I0418 21:47:29.737534 16791 net.cpp:108] Creating Layer relu6
I0418 21:47:29.737543 16791 net.cpp:456] relu6 <- fc6
I0418 21:47:29.737553 16791 net.cpp:399] relu6 -> fc6 (in-place)
I0418 21:47:29.738246 16791 net.cpp:152] Setting up relu6
I0418 21:47:29.738272 16791 net.cpp:159] Top shape: 50 4096 (204800)
I0418 21:47:29.738291 16791 net.cpp:167] Memory required for data: 339730800
I0418 21:47:29.738296 16791 layer_factory.hpp:77] Creating layer drop6
I0418 21:47:29.738314 16791 net.cpp:108] Creating Layer drop6
I0418 21:47:29.738320 16791 net.cpp:456] drop6 <- fc6
I0418 21:47:29.738329 16791 net.cpp:399] drop6 -> fc6 (in-place)
I0418 21:47:29.738378 16791 net.cpp:152] Setting up drop6
I0418 21:47:29.738386 16791 net.cpp:159] Top shape: 50 4096 (204800)
I0418 21:47:29.738391 16791 net.cpp:167] Memory required for data: 340550000
I0418 21:47:29.738396 16791 layer_factory.hpp:77] Creating layer fc7
I0418 21:47:29.738409 16791 net.cpp:108] Creating Layer fc7
I0418 21:47:29.738414 16791 net.cpp:456] fc7 <- fc6
I0418 21:47:29.738422 16791 net.cpp:413] fc7 -> fc7
I0418 21:47:30.220790 16791 net.cpp:152] Setting up fc7
I0418 21:47:30.220860 16791 net.cpp:159] Top shape: 50 4096 (204800)
I0418 21:47:30.220866 16791 net.cpp:167] Memory required for data: 341369200
I0418 21:47:30.220890 16791 layer_factory.hpp:77] Creating layer relu7
I0418 21:47:30.220918 16791 net.cpp:108] Creating Layer relu7
I0418 21:47:30.220938 16791 net.cpp:456] relu7 <- fc7
I0418 21:47:30.220948 16791 net.cpp:399] relu7 -> fc7 (in-place)
I0418 21:47:30.221712 16791 net.cpp:152] Setting up relu7
I0418 21:47:30.221725 16791 net.cpp:159] Top shape: 50 4096 (204800)
I0418 21:47:30.221730 16791 net.cpp:167] Memory required for data: 342188400
I0418 21:47:30.221736 16791 layer_factory.hpp:77] Creating layer drop7
I0418 21:47:30.221752 16791 net.cpp:108] Creating Layer drop7
I0418 21:47:30.221757 16791 net.cpp:456] drop7 <- fc7
I0418 21:47:30.221765 16791 net.cpp:399] drop7 -> fc7 (in-place)
I0418 21:47:30.221837 16791 net.cpp:152] Setting up drop7
I0418 21:47:30.221846 16791 net.cpp:159] Top shape: 50 4096 (204800)
I0418 21:47:30.221851 16791 net.cpp:167] Memory required for data: 343007600
I0418 21:47:30.221856 16791 layer_factory.hpp:77] Creating layer fc8
I0418 21:47:30.221868 16791 net.cpp:108] Creating Layer fc8
I0418 21:47:30.221873 16791 net.cpp:456] fc8 <- fc7
I0418 21:47:30.221885 16791 net.cpp:413] fc8 -> fc8
I0418 21:47:30.338696 16791 net.cpp:152] Setting up fc8
I0418 21:47:30.338747 16791 net.cpp:159] Top shape: 50 1000 (50000)
I0418 21:47:30.338752 16791 net.cpp:167] Memory required for data: 343207600
I0418 21:47:30.338763 16791 layer_factory.hpp:77] Creating layer fc8_fc8_0_split
I0418 21:47:30.338775 16791 net.cpp:108] Creating Layer fc8_fc8_0_split
I0418 21:47:30.338783 16791 net.cpp:456] fc8_fc8_0_split <- fc8
I0418 21:47:30.338793 16791 net.cpp:413] fc8_fc8_0_split -> fc8_fc8_0_split_0
I0418 21:47:30.338804 16791 net.cpp:413] fc8_fc8_0_split -> fc8_fc8_0_split_1
I0418 21:47:30.338850 16791 net.cpp:152] Setting up fc8_fc8_0_split
I0418 21:47:30.338857 16791 net.cpp:159] Top shape: 50 1000 (50000)
I0418 21:47:30.338863 16791 net.cpp:159] Top shape: 50 1000 (50000)
I0418 21:47:30.338868 16791 net.cpp:167] Memory required for data: 343607600
I0418 21:47:30.338872 16791 layer_factory.hpp:77] Creating layer accuracy
I0418 21:47:30.338891 16791 net.cpp:108] Creating Layer accuracy
I0418 21:47:30.338897 16791 net.cpp:456] accuracy <- fc8_fc8_0_split_0
I0418 21:47:30.338903 16791 net.cpp:456] accuracy <- label_data_1_split_0
I0418 21:47:30.338912 16791 net.cpp:413] accuracy -> accuracy
…
