…
I0821 20:45:39.377058 16064 net.cpp:324] The NetState phase (0) differed from the phase (1) specified by a rule in layer accuracy
I0821 20:45:39.377135 16064 layer_factory.hpp:77] Creating layer mnist
I0821 20:45:39.377638 16064 net.cpp:108] Creating Layer mnist
I0821 20:45:39.377696 16064 net.cpp:413] mnist -> data
I0821 20:45:39.377739 16064 net.cpp:413] mnist -> label
I0821 20:45:39.378697 16068 db_lmdb.cpp:38] Opened lmdb examples/mnist/mnist_train_lmdb
I0821 20:45:39.391410 16064 data_layer.cpp:41] output data size: 100,1,28,28
I0821 20:45:39.392704 16064 net.cpp:152] Setting up mnist
I0821 20:45:39.392734 16064 net.cpp:159] Top shape: 100 1 28 28 (78400)
I0821 20:45:39.392746 16064 net.cpp:159] Top shape: 100 (100)
I0821 20:45:39.392755 16064 net.cpp:167] Memory required for data: 314000
I0821 20:45:39.392771 16064 layer_factory.hpp:77] Creating layer conv1
I0821 20:45:39.392817 16064 net.cpp:108] Creating Layer conv1
I0821 20:45:39.392832 16064 net.cpp:456] conv1 <- data
I0821 20:45:39.392854 16064 net.cpp:413] conv1 -> conv1
I0821 20:45:39.539065 16064 net.cpp:152] Setting up conv1
I0821 20:45:39.539113 16064 net.cpp:159] Top shape: 100 20 24 24 (1152000)
I0821 20:45:39.539122 16064 net.cpp:167] Memory required for data: 4922000
I0821 20:45:39.539151 16064 layer_factory.hpp:77] Creating layer pool1
I0821 20:45:39.539173 16064 net.cpp:108] Creating Layer pool1
I0821 20:45:39.539183 16064 net.cpp:456] pool1 <- conv1
I0821 20:45:39.539196 16064 net.cpp:413] pool1 -> pool1
I0821 20:45:39.539259 16064 net.cpp:152] Setting up pool1
I0821 20:45:39.539275 16064 net.cpp:159] Top shape: 100 20 12 12 (288000)
I0821 20:45:39.539283 16064 net.cpp:167] Memory required for data: 6074000
I0821 20:45:39.539291 16064 layer_factory.hpp:77] Creating layer conv2
I0821 20:45:39.539310 16064 net.cpp:108] Creating Layer conv2
I0821 20:45:39.539319 16064 net.cpp:456] conv2 <- pool1
I0821 20:45:39.539330 16064 net.cpp:413] conv2 -> conv2
I0821 20:45:39.541873 16064 net.cpp:152] Setting up conv2
I0821 20:45:39.541894 16064 net.cpp:159] Top shape: 100 50 8 8 (320000)
I0821 20:45:39.541904 16064 net.cpp:167] Memory required for data: 7354000
I0821 20:45:39.541919 16064 layer_factory.hpp:77] Creating layer pool2
I0821 20:45:39.541934 16064 net.cpp:108] Creating Layer pool2
I0821 20:45:39.541944 16064 net.cpp:456] pool2 <- conv2
I0821 20:45:39.541954 16064 net.cpp:413] pool2 -> pool2
I0821 20:45:39.542006 16064 net.cpp:152] Setting up pool2
I0821 20:45:39.542021 16064 net.cpp:159] Top shape: 100 50 4 4 (80000)
I0821 20:45:39.542029 16064 net.cpp:167] Memory required for data: 7674000
I0821 20:45:39.542037 16064 layer_factory.hpp:77] Creating layer ip1
I0821 20:45:39.542052 16064 net.cpp:108] Creating Layer ip1
I0821 20:45:39.542062 16064 net.cpp:456] ip1 <- pool2
I0821 20:45:39.542073 16064 net.cpp:413] ip1 -> ip1
I0821 20:45:39.556941 16064 net.cpp:152] Setting up ip1
I0821 20:45:39.556962 16064 net.cpp:159] Top shape: 100 500 (50000)
I0821 20:45:39.556970 16064 net.cpp:167] Memory required for data: 7874000
I0821 20:45:39.556989 16064 layer_factory.hpp:77] Creating layer relu1
I0821 20:45:39.557003 16064 net.cpp:108] Creating Layer relu1
I0821 20:45:39.557011 16064 net.cpp:456] relu1 <- ip1
I0821 20:45:39.557021 16064 net.cpp:399] relu1 -> ip1 (in-place)
I0821 20:45:39.557224 16064 net.cpp:152] Setting up relu1
I0821 20:45:39.557242 16064 net.cpp:159] Top shape: 100 500 (50000)
I0821 20:45:39.557250 16064 net.cpp:167] Memory required for data: 8074000
I0821 20:45:39.557278 16064 layer_factory.hpp:77] Creating layer ip2
I0821 20:45:39.557291 16064 net.cpp:108] Creating Layer ip2
I0821 20:45:39.557301 16064 net.cpp:456] ip2 <- ip1
I0821 20:45:39.557312 16064 net.cpp:413] ip2 -> ip2
I0821 20:45:39.558105 16064 net.cpp:152] Setting up ip2
I0821 20:45:39.558125 16064 net.cpp:159] Top shape: 100 10 (1000)
I0821 20:45:39.558133 16064 net.cpp:167] Memory required for data: 8078000
I0821 20:45:39.558149 16064 layer_factory.hpp:77] Creating layer loss
I0821 20:45:39.558166 16064 net.cpp:108] Creating Layer loss
I0821 20:45:39.558176 16064 net.cpp:456] loss <- ip2
I0821 20:45:39.558185 16064 net.cpp:456] loss <- label
I0821 20:45:39.558197 16064 net.cpp:413] loss -> loss
I0821 20:45:39.558221 16064 layer_factory.hpp:77] Creating layer loss
…
I0821 20:45:39.559342 16064 net.cpp:324] The NetState phase (1) differed from the phase (0) specified by a rule in layer mnist
I0821 20:45:39.559442 16064 layer_factory.hpp:77] Creating layer mnist
I0821 20:45:39.559574 16064 net.cpp:108] Creating Layer mnist
I0821 20:45:39.559597 16064 net.cpp:413] mnist -> data
I0821 20:45:39.559612 16064 net.cpp:413] mnist -> label
I0821 20:45:39.560608 16070 db_lmdb.cpp:38] Opened lmdb examples/mnist/mnist_test_lmdb
I0821 20:45:39.560739 16064 data_layer.cpp:41] output data size: 100,1,28,28
I0821 20:45:39.562011 16064 net.cpp:152] Setting up mnist
I0821 20:45:39.562036 16064 net.cpp:159] Top shape: 100 1 28 28 (78400)
I0821 20:45:39.562047 16064 net.cpp:159] Top shape: 100 (100)
I0821 20:45:39.562054 16064 net.cpp:167] Memory required for data: 314000
I0821 20:45:39.562063 16064 layer_factory.hpp:77] Creating layer label_mnist_1_split
I0821 20:45:39.562078 16064 net.cpp:108] Creating Layer label_mnist_1_split
I0821 20:45:39.562088 16064 net.cpp:456] label_mnist_1_split <- label
I0821 20:45:39.562098 16064 net.cpp:413] label_mnist_1_split -> label_mnist_1_split_0
I0821 20:45:39.562113 16064 net.cpp:413] label_mnist_1_split -> label_mnist_1_split_1
I0821 20:45:39.562192 16064 net.cpp:152] Setting up label_mnist_1_split
I0821 20:45:39.562211 16064 net.cpp:159] Top shape: 100 (100)
I0821 20:45:39.562221 16064 net.cpp:159] Top shape: 100 (100)
I0821 20:45:39.562228 16064 net.cpp:167] Memory required for data: 314800
I0821 20:45:39.562237 16064 layer_factory.hpp:77] Creating layer conv1
I0821 20:45:39.562257 16064 net.cpp:108] Creating Layer conv1
I0821 20:45:39.562266 16064 net.cpp:456] conv1 <- data
I0821 20:45:39.562304 16064 net.cpp:413] conv1 -> conv1
I0821 20:45:39.563850 16064 net.cpp:152] Setting up conv1
I0821 20:45:39.563879 16064 net.cpp:159] Top shape: 100 20 24 24 (1152000)
I0821 20:45:39.563891 16064 net.cpp:167] Memory required for data: 4922800
I0821 20:45:39.563921 16064 layer_factory.hpp:77] Creating layer pool1
I0821 20:45:39.563937 16064 net.cpp:108] Creating Layer pool1
I0821 20:45:39.563956 16064 net.cpp:456] pool1 <- conv1
I0821 20:45:39.563978 16064 net.cpp:413] pool1 -> pool1
I0821 20:45:39.564043 16064 net.cpp:152] Setting up pool1
I0821 20:45:39.564064 16064 net.cpp:159] Top shape: 100 20 12 12 (288000)
I0821 20:45:39.564076 16064 net.cpp:167] Memory required for data: 6074800
I0821 20:45:39.564085 16064 layer_factory.hpp:77] Creating layer conv2
I0821 20:45:39.564106 16064 net.cpp:108] Creating Layer conv2
I0821 20:45:39.564121 16064 net.cpp:456] conv2 <- pool1
I0821 20:45:39.564137 16064 net.cpp:413] conv2 -> conv2
I0821 20:45:39.566418 16064 net.cpp:152] Setting up conv2
I0821 20:45:39.566443 16064 net.cpp:159] Top shape: 100 50 8 8 (320000)
I0821 20:45:39.566455 16064 net.cpp:167] Memory required for data: 7354800
I0821 20:45:39.566471 16064 layer_factory.hpp:77] Creating layer pool2
I0821 20:45:39.566488 16064 net.cpp:108] Creating Layer pool2
I0821 20:45:39.566499 16064 net.cpp:456] pool2 <- conv2
I0821 20:45:39.566519 16064 net.cpp:413] pool2 -> pool2
I0821 20:45:39.566578 16064 net.cpp:152] Setting up pool2
I0821 20:45:39.566598 16064 net.cpp:159] Top shape: 100 50 4 4 (80000)
I0821 20:45:39.566609 16064 net.cpp:167] Memory required for data: 7674800
I0821 20:45:39.566618 16064 layer_factory.hpp:77] Creating layer ip1
I0821 20:45:39.566637 16064 net.cpp:108] Creating Layer ip1
I0821 20:45:39.566648 16064 net.cpp:456] ip1 <- pool2
I0821 20:45:39.566664 16064 net.cpp:413] ip1 -> ip1
I0821 20:45:39.582495 16064 net.cpp:152] Setting up ip1
I0821 20:45:39.582517 16064 net.cpp:159] Top shape: 100 500 (50000)
I0821 20:45:39.582526 16064 net.cpp:167] Memory required for data: 7874800
I0821 20:45:39.582541 16064 layer_factory.hpp:77] Creating layer relu1
I0821 20:45:39.582556 16064 net.cpp:108] Creating Layer relu1
I0821 20:45:39.582566 16064 net.cpp:456] relu1 <- ip1
I0821 20:45:39.582578 16064 net.cpp:399] relu1 -> ip1 (in-place)
I0821 20:45:39.582955 16064 net.cpp:152] Setting up relu1
I0821 20:45:39.582975 16064 net.cpp:159] Top shape: 100 500 (50000)
I0821 20:45:39.582984 16064 net.cpp:167] Memory required for data: 8074800
I0821 20:45:39.582993 16064 layer_factory.hpp:77] Creating layer ip2
I0821 20:45:39.583009 16064 net.cpp:108] Creating Layer ip2
I0821 20:45:39.583019 16064 net.cpp:456] ip2 <- ip1
I0821 20:45:39.583034 16064 net.cpp:413] ip2 -> ip2
I0821 20:45:39.583353 16064 net.cpp:152] Setting up ip2
I0821 20:45:39.583370 16064 net.cpp:159] Top shape: 100 10 (1000)
I0821 20:45:39.583379 16064 net.cpp:167] Memory required for data: 8078800
I0821 20:45:39.583390 16064 layer_factory.hpp:77] Creating layer ip2_ip2_0_split
I0821 20:45:39.583401 16064 net.cpp:108] Creating Layer ip2_ip2_0_split
I0821 20:45:39.583410 16064 net.cpp:456] ip2_ip2_0_split <- ip2
I0821 20:45:39.583420 16064 net.cpp:413] ip2_ip2_0_split -> ip2_ip2_0_split_0
I0821 20:45:39.583436 16064 net.cpp:413] ip2_ip2_0_split -> ip2_ip2_0_split_1
I0821 20:45:39.583487 16064 net.cpp:152] Setting up ip2_ip2_0_split
I0821 20:45:39.583503 16064 net.cpp:159] Top shape: 100 10 (1000)
I0821 20:45:39.583513 16064 net.cpp:159] Top shape: 100 10 (1000)
I0821 20:45:39.583520 16064 net.cpp:167] Memory required for data: 8086800
I0821 20:45:39.583528 16064 layer_factory.hpp:77] Creating layer accuracy
I0821 20:45:39.583545 16064 net.cpp:108] Creating Layer accuracy
I0821 20:45:39.583555 16064 net.cpp:456] accuracy <- ip2_ip2_0_split_0
I0821 20:45:39.583564 16064 net.cpp:456] accuracy <- label_mnist_1_split_0
I0821 20:45:39.583575 16064 net.cpp:413] accuracy -> accuracy
…
