…
I0902 09:27:27.242867 14461 net.cpp:324] The NetState phase (0) differed from the phase (1) specified by a rule in layer accuracy
I0902 09:27:27.242947 14461 layer_factory.hpp:77] Creating layer mnist
I0902 09:27:27.243472 14461 net.cpp:108] Creating Layer mnist
I0902 09:27:27.243494 14461 net.cpp:413] mnist -> data
I0902 09:27:27.243634 14461 net.cpp:413] mnist -> label
I0902 09:27:27.245211 14479 db_lmdb.cpp:38] Opened lmdb examples/mnist/mnist_train_lmdb
I0902 09:27:27.262152 14461 data_layer.cpp:41] output data size: 100,1,28,28
I0902 09:27:27.263339 14461 net.cpp:152] Setting up mnist
I0902 09:27:27.263366 14461 net.cpp:159] Top shape: 100 1 28 28 (78400)
I0902 09:27:27.263377 14461 net.cpp:159] Top shape: 100 (100)
I0902 09:27:27.263384 14461 net.cpp:167] Memory required for data: 314000
I0902 09:27:27.263396 14461 layer_factory.hpp:77] Creating layer conv1
I0902 09:27:27.263480 14461 net.cpp:108] Creating Layer conv1
I0902 09:27:27.263494 14461 net.cpp:456] conv1 <- data
I0902 09:27:27.263517 14461 net.cpp:413] conv1 -> conv1
I0902 09:27:27.436179 14461 net.cpp:152] Setting up conv1
I0902 09:27:27.436246 14461 net.cpp:159] Top shape: 100 20 24 24 (1152000)
I0902 09:27:27.436255 14461 net.cpp:167] Memory required for data: 4922000
I0902 09:27:27.436288 14461 layer_factory.hpp:77] Creating layer pool1
I0902 09:27:27.436318 14461 net.cpp:108] Creating Layer pool1
I0902 09:27:27.436329 14461 net.cpp:456] pool1 <- conv1
I0902 09:27:27.436344 14461 net.cpp:413] pool1 -> pool1
I0902 09:27:27.436411 14461 net.cpp:152] Setting up pool1
I0902 09:27:27.436424 14461 net.cpp:159] Top shape: 100 20 12 12 (288000)
I0902 09:27:27.436431 14461 net.cpp:167] Memory required for data: 6074000
I0902 09:27:27.436439 14461 layer_factory.hpp:77] Creating layer conv2
I0902 09:27:27.436460 14461 net.cpp:108] Creating Layer conv2
I0902 09:27:27.436468 14461 net.cpp:456] conv2 <- pool1
I0902 09:27:27.436477 14461 net.cpp:413] conv2 -> conv2
I0902 09:27:27.439316 14461 net.cpp:152] Setting up conv2
I0902 09:27:27.439339 14461 net.cpp:159] Top shape: 100 50 8 8 (320000)
I0902 09:27:27.439347 14461 net.cpp:167] Memory required for data: 7354000
I0902 09:27:27.439363 14461 layer_factory.hpp:77] Creating layer pool2
I0902 09:27:27.439375 14461 net.cpp:108] Creating Layer pool2
I0902 09:27:27.439383 14461 net.cpp:456] pool2 <- conv2
I0902 09:27:27.439393 14461 net.cpp:413] pool2 -> pool2
I0902 09:27:27.439438 14461 net.cpp:152] Setting up pool2
I0902 09:27:27.439450 14461 net.cpp:159] Top shape: 100 50 4 4 (80000)
I0902 09:27:27.439456 14461 net.cpp:167] Memory required for data: 7674000
I0902 09:27:27.439463 14461 layer_factory.hpp:77] Creating layer ip1
I0902 09:27:27.439482 14461 net.cpp:108] Creating Layer ip1
I0902 09:27:27.439489 14461 net.cpp:456] ip1 <- pool2
I0902 09:27:27.439499 14461 net.cpp:413] ip1 -> ip1
I0902 09:27:27.454851 14461 net.cpp:152] Setting up ip1
I0902 09:27:27.454874 14461 net.cpp:159] Top shape: 100 500 (50000)
I0902 09:27:27.454881 14461 net.cpp:167] Memory required for data: 7874000
I0902 09:27:27.454895 14461 layer_factory.hpp:77] Creating layer relu1
I0902 09:27:27.454908 14461 net.cpp:108] Creating Layer relu1
I0902 09:27:27.454916 14461 net.cpp:456] relu1 <- ip1
I0902 09:27:27.454926 14461 net.cpp:399] relu1 -> ip1 (in-place)
I0902 09:27:27.455148 14461 net.cpp:152] Setting up relu1
I0902 09:27:27.455164 14461 net.cpp:159] Top shape: 100 500 (50000)
I0902 09:27:27.455171 14461 net.cpp:167] Memory required for data: 8074000
I0902 09:27:27.455202 14461 layer_factory.hpp:77] Creating layer ip2
I0902 09:27:27.455220 14461 net.cpp:108] Creating Layer ip2
I0902 09:27:27.455227 14461 net.cpp:456] ip2 <- ip1
I0902 09:27:27.455241 14461 net.cpp:413] ip2 -> ip2
I0902 09:27:27.456305 14461 net.cpp:152] Setting up ip2
I0902 09:27:27.456324 14461 net.cpp:159] Top shape: 100 10 (1000)
I0902 09:27:27.456331 14461 net.cpp:167] Memory required for data: 8078000
I0902 09:27:27.456342 14461 layer_factory.hpp:77] Creating layer loss
I0902 09:27:27.456357 14461 net.cpp:108] Creating Layer loss
I0902 09:27:27.456364 14461 net.cpp:456] loss <- ip2
I0902 09:27:27.456373 14461 net.cpp:456] loss <- label
I0902 09:27:27.456383 14461 net.cpp:413] loss -> loss
I0902 09:27:27.456409 14461 layer_factory.hpp:77] Creating layer loss
…
I0902 09:27:27.457540 14461 net.cpp:324] The NetState phase (1) differed from the phase (0) specified by a rule in layer mnist
I0902 09:27:27.457644 14461 layer_factory.hpp:77] Creating layer mnist
I0902 09:27:27.457814 14461 net.cpp:108] Creating Layer mnist
I0902 09:27:27.457829 14461 net.cpp:413] mnist -> data
I0902 09:27:27.457842 14461 net.cpp:413] mnist -> label
I0902 09:27:27.459506 14481 db_lmdb.cpp:38] Opened lmdb examples/mnist/mnist_test_lmdb
I0902 09:27:27.459852 14461 data_layer.cpp:41] output data size: 100,1,28,28
I0902 09:27:27.461302 14461 net.cpp:152] Setting up mnist
I0902 09:27:27.461324 14461 net.cpp:159] Top shape: 100 1 28 28 (78400)
I0902 09:27:27.461334 14461 net.cpp:159] Top shape: 100 (100)
I0902 09:27:27.461341 14461 net.cpp:167] Memory required for data: 314000
I0902 09:27:27.461349 14461 layer_factory.hpp:77] Creating layer label_mnist_1_split
I0902 09:27:27.461360 14461 net.cpp:108] Creating Layer label_mnist_1_split
I0902 09:27:27.461367 14461 net.cpp:456] label_mnist_1_split <- label
I0902 09:27:27.461380 14461 net.cpp:413] label_mnist_1_split -> label_mnist_1_split_0
I0902 09:27:27.461392 14461 net.cpp:413] label_mnist_1_split -> label_mnist_1_split_1
I0902 09:27:27.461506 14461 net.cpp:152] Setting up label_mnist_1_split
I0902 09:27:27.461521 14461 net.cpp:159] Top shape: 100 (100)
I0902 09:27:27.461529 14461 net.cpp:159] Top shape: 100 (100)
I0902 09:27:27.461535 14461 net.cpp:167] Memory required for data: 314800
I0902 09:27:27.461542 14461 layer_factory.hpp:77] Creating layer conv1
I0902 09:27:27.461563 14461 net.cpp:108] Creating Layer conv1
I0902 09:27:27.461571 14461 net.cpp:456] conv1 <- data
I0902 09:27:27.461585 14461 net.cpp:413] conv1 -> conv1
I0902 09:27:27.463119 14461 net.cpp:152] Setting up conv1
I0902 09:27:27.463141 14461 net.cpp:159] Top shape: 100 20 24 24 (1152000)
I0902 09:27:27.463150 14461 net.cpp:167] Memory required for data: 4922800
I0902 09:27:27.463177 14461 layer_factory.hpp:77] Creating layer pool1
I0902 09:27:27.463189 14461 net.cpp:108] Creating Layer pool1
I0902 09:27:27.463203 14461 net.cpp:456] pool1 <- conv1
I0902 09:27:27.463227 14461 net.cpp:413] pool1 -> pool1
I0902 09:27:27.463279 14461 net.cpp:152] Setting up pool1
I0902 09:27:27.463289 14461 net.cpp:159] Top shape: 100 20 12 12 (288000)
I0902 09:27:27.463296 14461 net.cpp:167] Memory required for data: 6074800
I0902 09:27:27.463302 14461 layer_factory.hpp:77] Creating layer conv2
I0902 09:27:27.463326 14461 net.cpp:108] Creating Layer conv2
I0902 09:27:27.463335 14461 net.cpp:456] conv2 <- pool1
I0902 09:27:27.463345 14461 net.cpp:413] conv2 -> conv2
I0902 09:27:27.465374 14461 net.cpp:152] Setting up conv2
I0902 09:27:27.465404 14461 net.cpp:159] Top shape: 100 50 8 8 (320000)
I0902 09:27:27.465415 14461 net.cpp:167] Memory required for data: 7354800
I0902 09:27:27.465430 14461 layer_factory.hpp:77] Creating layer pool2
I0902 09:27:27.465441 14461 net.cpp:108] Creating Layer pool2
I0902 09:27:27.465451 14461 net.cpp:456] pool2 <- conv2
I0902 09:27:27.465464 14461 net.cpp:413] pool2 -> pool2
I0902 09:27:27.465517 14461 net.cpp:152] Setting up pool2
I0902 09:27:27.465531 14461 net.cpp:159] Top shape: 100 50 4 4 (80000)
I0902 09:27:27.465539 14461 net.cpp:167] Memory required for data: 7674800
I0902 09:27:27.465548 14461 layer_factory.hpp:77] Creating layer ip1
I0902 09:27:27.465564 14461 net.cpp:108] Creating Layer ip1
I0902 09:27:27.465574 14461 net.cpp:456] ip1 <- pool2
I0902 09:27:27.465585 14461 net.cpp:413] ip1 -> ip1
I0902 09:27:27.482491 14461 net.cpp:152] Setting up ip1
I0902 09:27:27.482512 14461 net.cpp:159] Top shape: 100 500 (50000)
I0902 09:27:27.482519 14461 net.cpp:167] Memory required for data: 7874800
I0902 09:27:27.482534 14461 layer_factory.hpp:77] Creating layer relu1
I0902 09:27:27.482547 14461 net.cpp:108] Creating Layer relu1
I0902 09:27:27.482555 14461 net.cpp:456] relu1 <- ip1
I0902 09:27:27.482564 14461 net.cpp:399] relu1 -> ip1 (in-place)
I0902 09:27:27.482893 14461 net.cpp:152] Setting up relu1
I0902 09:27:27.482913 14461 net.cpp:159] Top shape: 100 500 (50000)
I0902 09:27:27.482919 14461 net.cpp:167] Memory required for data: 8074800
I0902 09:27:27.482928 14461 layer_factory.hpp:77] Creating layer ip2
I0902 09:27:27.482942 14461 net.cpp:108] Creating Layer ip2
I0902 09:27:27.482950 14461 net.cpp:456] ip2 <- ip1
I0902 09:27:27.482964 14461 net.cpp:413] ip2 -> ip2
I0902 09:27:27.483278 14461 net.cpp:152] Setting up ip2
I0902 09:27:27.483290 14461 net.cpp:159] Top shape: 100 10 (1000)
I0902 09:27:27.483297 14461 net.cpp:167] Memory required for data: 8078800
I0902 09:27:27.483307 14461 layer_factory.hpp:77] Creating layer ip2_ip2_0_split
I0902 09:27:27.483316 14461 net.cpp:108] Creating Layer ip2_ip2_0_split
I0902 09:27:27.483324 14461 net.cpp:456] ip2_ip2_0_split <- ip2
I0902 09:27:27.483332 14461 net.cpp:413] ip2_ip2_0_split -> ip2_ip2_0_split_0
I0902 09:27:27.483342 14461 net.cpp:413] ip2_ip2_0_split -> ip2_ip2_0_split_1
I0902 09:27:27.483387 14461 net.cpp:152] Setting up ip2_ip2_0_split
I0902 09:27:27.483398 14461 net.cpp:159] Top shape: 100 10 (1000)
I0902 09:27:27.483407 14461 net.cpp:159] Top shape: 100 10 (1000)
I0902 09:27:27.483412 14461 net.cpp:167] Memory required for data: 8086800
I0902 09:27:27.483418 14461 layer_factory.hpp:77] Creating layer accuracy
I0902 09:27:27.483434 14461 net.cpp:108] Creating Layer accuracy
I0902 09:27:27.483441 14461 net.cpp:456] accuracy <- ip2_ip2_0_split_0
I0902 09:27:27.483449 14461 net.cpp:456] accuracy <- label_mnist_1_split_0
I0902 09:27:27.483458 14461 net.cpp:413] accuracy -> accuracy
…
