…
I0418 14:43:22.607326  2131 layer_factory.hpp:77] Creating layer cifar
I0418 14:43:22.607868  2131 net.cpp:108] Creating Layer cifar
I0418 14:43:22.607892  2131 net.cpp:413] cifar -> data
I0418 14:43:22.607923  2131 net.cpp:413] cifar -> label
I0418 14:43:22.608037  2131 data_transformer.cpp:25] Loading mean file from: examples/cifar10/mean.binaryproto
I0418 14:43:22.609720  2134 db_lmdb.cpp:38] Opened lmdb examples/cifar10/cifar10_train_lmdb
I0418 14:43:22.627810  2131 data_layer.cpp:41] output data size: 100,3,32,32
I0418 14:43:22.632146  2131 net.cpp:152] Setting up cifar
I0418 14:43:22.632180  2131 net.cpp:159] Top shape: 100 3 32 32 (307200)
I0418 14:43:22.632262  2131 net.cpp:159] Top shape: 100 (100)
I0418 14:43:22.632308  2131 net.cpp:167] Memory required for data: 1229200
I0418 14:43:22.632329  2131 layer_factory.hpp:77] Creating layer conv1
I0418 14:43:22.632374  2131 net.cpp:108] Creating Layer conv1
I0418 14:43:22.632390  2131 net.cpp:456] conv1 <- data
I0418 14:43:22.632434  2131 net.cpp:413] conv1 -> conv1
I0418 14:43:22.810101  2131 net.cpp:152] Setting up conv1
I0418 14:43:22.810150  2131 net.cpp:159] Top shape: 100 32 32 32 (3276800)
I0418 14:43:22.810160  2131 net.cpp:167] Memory required for data: 14336400
I0418 14:43:22.810189  2131 layer_factory.hpp:77] Creating layer pool1
I0418 14:43:22.810214  2131 net.cpp:108] Creating Layer pool1
I0418 14:43:22.810221  2131 net.cpp:456] pool1 <- conv1
I0418 14:43:22.810232  2131 net.cpp:413] pool1 -> pool1
I0418 14:43:22.810302  2131 net.cpp:152] Setting up pool1
I0418 14:43:22.810314  2131 net.cpp:159] Top shape: 100 32 16 16 (819200)
I0418 14:43:22.810322  2131 net.cpp:167] Memory required for data: 17613200
I0418 14:43:22.810328  2131 layer_factory.hpp:77] Creating layer relu1
I0418 14:43:22.810338  2131 net.cpp:108] Creating Layer relu1
I0418 14:43:22.810345  2131 net.cpp:456] relu1 <- pool1
I0418 14:43:22.810353  2131 net.cpp:399] relu1 -> pool1 (in-place)
I0418 14:43:22.810544  2131 net.cpp:152] Setting up relu1
I0418 14:43:22.810559  2131 net.cpp:159] Top shape: 100 32 16 16 (819200)
I0418 14:43:22.810566  2131 net.cpp:167] Memory required for data: 20890000
I0418 14:43:22.810573  2131 layer_factory.hpp:77] Creating layer conv2
I0418 14:43:22.810593  2131 net.cpp:108] Creating Layer conv2
I0418 14:43:22.810600  2131 net.cpp:456] conv2 <- pool1
I0418 14:43:22.810611  2131 net.cpp:413] conv2 -> conv2
I0418 14:43:22.813318  2131 net.cpp:152] Setting up conv2
I0418 14:43:22.813343  2131 net.cpp:159] Top shape: 100 32 16 16 (819200)
I0418 14:43:22.813354  2131 net.cpp:167] Memory required for data: 24166800
I0418 14:43:22.813369  2131 layer_factory.hpp:77] Creating layer relu2
I0418 14:43:22.813380  2131 net.cpp:108] Creating Layer relu2
I0418 14:43:22.813386  2131 net.cpp:456] relu2 <- conv2
I0418 14:43:22.813395  2131 net.cpp:399] relu2 -> conv2 (in-place)
I0418 14:43:22.813733  2131 net.cpp:152] Setting up relu2
I0418 14:43:22.813757  2131 net.cpp:159] Top shape: 100 32 16 16 (819200)
I0418 14:43:22.813765  2131 net.cpp:167] Memory required for data: 27443600
I0418 14:43:22.813771  2131 layer_factory.hpp:77] Creating layer pool2
I0418 14:43:22.813782  2131 net.cpp:108] Creating Layer pool2
I0418 14:43:22.813788  2131 net.cpp:456] pool2 <- conv2
I0418 14:43:22.813809  2131 net.cpp:413] pool2 -> pool2
I0418 14:43:22.814066  2131 net.cpp:152] Setting up pool2
I0418 14:43:22.814083  2131 net.cpp:159] Top shape: 100 32 8 8 (204800)
I0418 14:43:22.814090  2131 net.cpp:167] Memory required for data: 28262800
I0418 14:43:22.814096  2131 layer_factory.hpp:77] Creating layer conv3
I0418 14:43:22.814115  2131 net.cpp:108] Creating Layer conv3
I0418 14:43:22.814121  2131 net.cpp:456] conv3 <- pool2
I0418 14:43:22.814136  2131 net.cpp:413] conv3 -> conv3
I0418 14:43:22.817090  2131 net.cpp:152] Setting up conv3
I0418 14:43:22.817112  2131 net.cpp:159] Top shape: 100 64 8 8 (409600)
I0418 14:43:22.817121  2131 net.cpp:167] Memory required for data: 29901200
I0418 14:43:22.817134  2131 layer_factory.hpp:77] Creating layer relu3
I0418 14:43:22.817150  2131 net.cpp:108] Creating Layer relu3
I0418 14:43:22.817157  2131 net.cpp:456] relu3 <- conv3
I0418 14:43:22.817167  2131 net.cpp:399] relu3 -> conv3 (in-place)
I0418 14:43:22.817494  2131 net.cpp:152] Setting up relu3
I0418 14:43:22.817513  2131 net.cpp:159] Top shape: 100 64 8 8 (409600)
I0418 14:43:22.817520  2131 net.cpp:167] Memory required for data: 31539600
I0418 14:43:22.817526  2131 layer_factory.hpp:77] Creating layer pool3
I0418 14:43:22.817540  2131 net.cpp:108] Creating Layer pool3
I0418 14:43:22.817548  2131 net.cpp:456] pool3 <- conv3
I0418 14:43:22.817560  2131 net.cpp:413] pool3 -> pool3
I0418 14:43:22.817777  2131 net.cpp:152] Setting up pool3
I0418 14:43:22.817792  2131 net.cpp:159] Top shape: 100 64 4 4 (102400)
I0418 14:43:22.817798  2131 net.cpp:167] Memory required for data: 31949200
I0418 14:43:22.817806  2131 layer_factory.hpp:77] Creating layer ip1
I0418 14:43:22.817821  2131 net.cpp:108] Creating Layer ip1
I0418 14:43:22.817828  2131 net.cpp:456] ip1 <- pool3
I0418 14:43:22.817837  2131 net.cpp:413] ip1 -> ip1
I0418 14:43:22.820296  2131 net.cpp:152] Setting up ip1
I0418 14:43:22.820310  2131 net.cpp:159] Top shape: 100 64 (6400)
I0418 14:43:22.820317  2131 net.cpp:167] Memory required for data: 31974800
I0418 14:43:22.820327  2131 layer_factory.hpp:77] Creating layer ip2
I0418 14:43:22.820343  2131 net.cpp:108] Creating Layer ip2
I0418 14:43:22.820350  2131 net.cpp:456] ip2 <- ip1
I0418 14:43:22.820359  2131 net.cpp:413] ip2 -> ip2
I0418 14:43:22.820508  2131 net.cpp:152] Setting up ip2
I0418 14:43:22.820519  2131 net.cpp:159] Top shape: 100 10 (1000)
I0418 14:43:22.820526  2131 net.cpp:167] Memory required for data: 31978800
I0418 14:43:22.820538  2131 layer_factory.hpp:77] Creating layer loss
I0418 14:43:22.820551  2131 net.cpp:108] Creating Layer loss
I0418 14:43:22.820559  2131 net.cpp:456] loss <- ip2
I0418 14:43:22.820566  2131 net.cpp:456] loss <- label
I0418 14:43:22.820576  2131 net.cpp:413] loss -> loss
I0418 14:43:22.820596  2131 layer_factory.hpp:77] Creating layer loss
…
I0418 14:43:22.821946  2131 layer_factory.hpp:77] Creating layer cifar
I0418 14:43:22.822118  2131 net.cpp:108] Creating Layer cifar
I0418 14:43:22.822134  2131 net.cpp:413] cifar -> data
I0418 14:43:22.822151  2131 net.cpp:413] cifar -> label
I0418 14:43:22.822170  2131 data_transformer.cpp:25] Loading mean file from: examples/cifar10/mean.binaryproto
I0418 14:43:22.823278  2136 db_lmdb.cpp:38] Opened lmdb examples/cifar10/cifar10_test_lmdb
I0418 14:43:22.823539  2131 data_layer.cpp:41] output data size: 100,3,32,32
I0418 14:43:22.829152  2131 net.cpp:152] Setting up cifar
I0418 14:43:22.829196  2131 net.cpp:159] Top shape: 100 3 32 32 (307200)
I0418 14:43:22.829213  2131 net.cpp:159] Top shape: 100 (100)
I0418 14:43:22.829226  2131 net.cpp:167] Memory required for data: 1229200
I0418 14:43:22.829242  2131 layer_factory.hpp:77] Creating layer label_cifar_1_split
I0418 14:43:22.829273  2131 net.cpp:108] Creating Layer label_cifar_1_split
I0418 14:43:22.829291  2131 net.cpp:456] label_cifar_1_split <- label
I0418 14:43:22.829311  2131 net.cpp:413] label_cifar_1_split -> label_cifar_1_split_0
I0418 14:43:22.829339  2131 net.cpp:413] label_cifar_1_split -> label_cifar_1_split_1
I0418 14:43:22.829602  2131 net.cpp:152] Setting up label_cifar_1_split
I0418 14:43:22.829645  2131 net.cpp:159] Top shape: 100 (100)
I0418 14:43:22.829663  2131 net.cpp:159] Top shape: 100 (100)
I0418 14:43:22.829674  2131 net.cpp:167] Memory required for data: 1230000
I0418 14:43:22.829687  2131 layer_factory.hpp:77] Creating layer conv1
I0418 14:43:22.829721  2131 net.cpp:108] Creating Layer conv1
I0418 14:43:22.829737  2131 net.cpp:456] conv1 <- data
I0418 14:43:22.829762  2131 net.cpp:413] conv1 -> conv1
I0418 14:43:22.832705  2131 net.cpp:152] Setting up conv1
I0418 14:43:22.832747  2131 net.cpp:159] Top shape: 100 32 32 32 (3276800)
I0418 14:43:22.832762  2131 net.cpp:167] Memory required for data: 14337200
I0418 14:43:22.832821  2131 layer_factory.hpp:77] Creating layer pool1
I0418 14:43:22.832849  2131 net.cpp:108] Creating Layer pool1
I0418 14:43:22.832862  2131 net.cpp:456] pool1 <- conv1
I0418 14:43:22.832885  2131 net.cpp:413] pool1 -> pool1
I0418 14:43:22.832988  2131 net.cpp:152] Setting up pool1
I0418 14:43:22.833012  2131 net.cpp:159] Top shape: 100 32 16 16 (819200)
I0418 14:43:22.833024  2131 net.cpp:167] Memory required for data: 17614000
I0418 14:43:22.833037  2131 layer_factory.hpp:77] Creating layer relu1
I0418 14:43:22.833061  2131 net.cpp:108] Creating Layer relu1
I0418 14:43:22.833075  2131 net.cpp:456] relu1 <- pool1
I0418 14:43:22.833091  2131 net.cpp:399] relu1 -> pool1 (in-place)
I0418 14:43:22.833477  2131 net.cpp:152] Setting up relu1
I0418 14:43:22.833511  2131 net.cpp:159] Top shape: 100 32 16 16 (819200)
I0418 14:43:22.833525  2131 net.cpp:167] Memory required for data: 20890800
I0418 14:43:22.833539  2131 layer_factory.hpp:77] Creating layer conv2
I0418 14:43:22.833576  2131 net.cpp:108] Creating Layer conv2
I0418 14:43:22.833591  2131 net.cpp:456] conv2 <- pool1
I0418 14:43:22.833616  2131 net.cpp:413] conv2 -> conv2
I0418 14:43:22.838098  2131 net.cpp:152] Setting up conv2
I0418 14:43:22.838138  2131 net.cpp:159] Top shape: 100 32 16 16 (819200)
I0418 14:43:22.838153  2131 net.cpp:167] Memory required for data: 24167600
I0418 14:43:22.838178  2131 layer_factory.hpp:77] Creating layer relu2
I0418 14:43:22.838197  2131 net.cpp:108] Creating Layer relu2
I0418 14:43:22.838213  2131 net.cpp:456] relu2 <- conv2
I0418 14:43:22.838232  2131 net.cpp:399] relu2 -> conv2 (in-place)
I0418 14:43:22.838626  2131 net.cpp:152] Setting up relu2
I0418 14:43:22.838654  2131 net.cpp:159] Top shape: 100 32 16 16 (819200)
I0418 14:43:22.838676  2131 net.cpp:167] Memory required for data: 27444400
I0418 14:43:22.838718  2131 layer_factory.hpp:77] Creating layer pool2
I0418 14:43:22.838742  2131 net.cpp:108] Creating Layer pool2
I0418 14:43:22.838757  2131 net.cpp:456] pool2 <- conv2
I0418 14:43:22.838773  2131 net.cpp:413] pool2 -> pool2
I0418 14:43:22.839386  2131 net.cpp:152] Setting up pool2
I0418 14:43:22.839428  2131 net.cpp:159] Top shape: 100 32 8 8 (204800)
I0418 14:43:22.839442  2131 net.cpp:167] Memory required for data: 28263600
I0418 14:43:22.839462  2131 layer_factory.hpp:77] Creating layer conv3
I0418 14:43:22.839500  2131 net.cpp:108] Creating Layer conv3
I0418 14:43:22.839516  2131 net.cpp:456] conv3 <- pool2
I0418 14:43:22.839536  2131 net.cpp:413] conv3 -> conv3
I0418 14:43:22.843467  2131 net.cpp:152] Setting up conv3
I0418 14:43:22.843492  2131 net.cpp:159] Top shape: 100 64 8 8 (409600)
I0418 14:43:22.843500  2131 net.cpp:167] Memory required for data: 29902000
I0418 14:43:22.843514  2131 layer_factory.hpp:77] Creating layer relu3
I0418 14:43:22.843529  2131 net.cpp:108] Creating Layer relu3
I0418 14:43:22.843538  2131 net.cpp:456] relu3 <- conv3
I0418 14:43:22.843547  2131 net.cpp:399] relu3 -> conv3 (in-place)
I0418 14:43:22.843930  2131 net.cpp:152] Setting up relu3
I0418 14:43:22.843950  2131 net.cpp:159] Top shape: 100 64 8 8 (409600)
I0418 14:43:22.843958  2131 net.cpp:167] Memory required for data: 31540400
I0418 14:43:22.843966  2131 layer_factory.hpp:77] Creating layer pool3
I0418 14:43:22.843979  2131 net.cpp:108] Creating Layer pool3
I0418 14:43:22.843987  2131 net.cpp:456] pool3 <- conv3
I0418 14:43:22.843999  2131 net.cpp:413] pool3 -> pool3
I0418 14:43:22.844396  2131 net.cpp:152] Setting up pool3
I0418 14:43:22.844416  2131 net.cpp:159] Top shape: 100 64 4 4 (102400)
I0418 14:43:22.844424  2131 net.cpp:167] Memory required for data: 31950000
I0418 14:43:22.844431  2131 layer_factory.hpp:77] Creating layer ip1
I0418 14:43:22.844444  2131 net.cpp:108] Creating Layer ip1
I0418 14:43:22.844450  2131 net.cpp:456] ip1 <- pool3
I0418 14:43:22.844465  2131 net.cpp:413] ip1 -> ip1
I0418 14:43:22.847863  2131 net.cpp:152] Setting up ip1
I0418 14:43:22.847885  2131 net.cpp:159] Top shape: 100 64 (6400)
I0418 14:43:22.847893  2131 net.cpp:167] Memory required for data: 31975600
I0418 14:43:22.847904  2131 layer_factory.hpp:77] Creating layer ip2
I0418 14:43:22.847918  2131 net.cpp:108] Creating Layer ip2
I0418 14:43:22.847925  2131 net.cpp:456] ip2 <- ip1
I0418 14:43:22.847939  2131 net.cpp:413] ip2 -> ip2
I0418 14:43:22.848098  2131 net.cpp:152] Setting up ip2
I0418 14:43:22.848112  2131 net.cpp:159] Top shape: 100 10 (1000)
I0418 14:43:22.848119  2131 net.cpp:167] Memory required for data: 31979600
I0418 14:43:22.848136  2131 layer_factory.hpp:77] Creating layer ip2_ip2_0_split
I0418 14:43:22.848146  2131 net.cpp:108] Creating Layer ip2_ip2_0_split
I0418 14:43:22.848153  2131 net.cpp:456] ip2_ip2_0_split <- ip2
I0418 14:43:22.848163  2131 net.cpp:413] ip2_ip2_0_split -> ip2_ip2_0_split_0
I0418 14:43:22.848173  2131 net.cpp:413] ip2_ip2_0_split -> ip2_ip2_0_split_1
I0418 14:43:22.848222  2131 net.cpp:152] Setting up ip2_ip2_0_split
I0418 14:43:22.848234  2131 net.cpp:159] Top shape: 100 10 (1000)
I0418 14:43:22.848242  2131 net.cpp:159] Top shape: 100 10 (1000)
I0418 14:43:22.848249  2131 net.cpp:167] Memory required for data: 31987600
I0418 14:43:22.848256  2131 layer_factory.hpp:77] Creating layer accuracy
I0418 14:43:22.848275  2131 net.cpp:108] Creating Layer accuracy
I0418 14:43:22.848284  2131 net.cpp:456] accuracy <- ip2_ip2_0_split_0
I0418 14:43:22.848291  2131 net.cpp:456] accuracy <- label_cifar_1_split_0
I0418 14:43:22.848301  2131 net.cpp:413] accuracy -> accuracy
…
