…
I0426 11:27:37.596760 17067 base_data_layer.cpp:22] LayerSetUp
I0426 11:27:37.596792 17067 data_layer.cpp:29] DataLayerSetUp
I0426 11:27:37.598322 17075 db_lmdb.cpp:38] Opened lmdb examples/mnist/mnist_train_lmdb
I0426 11:27:37.624444 17067 data_layer.cpp:43] output data size: 128,1,28,28
I0426 11:27:37.624506 17067 base_data_layer.cpp:49] LayerSetUp12
I0426 11:27:37.626195 17067 base_data_layer.cpp:70] Initializing prefetch
I0426 11:27:37.626266 17067 base_data_layer.cpp:73] Prefetch initialized.
I0426 11:27:37.626276 17067 net.cpp:152] Setting up mnist
I0426 11:27:37.626323 17067 net.cpp:158] Top shape: 128 1 28 28 (100352)
I0426 11:27:37.626334 17067 net.cpp:158] Top shape: 128 (128)
I0426 11:27:37.626339 17067 net.cpp:164] Memory required for data: 401920
I0426 11:27:37.626363 17067 layer_factory.hpp:77] Creating layer conv1
I0426 11:27:37.626405 17067 layer.hpp:52] blobs_size:0
I0426 11:27:37.626430 17067 net.cpp:112] Creating Layer conv1
I0426 11:27:37.626447 17067 net.cpp:418] conv1 <- data
I0426 11:27:37.626495 17067 net.cpp:375] conv1 -> conv1
I0426 11:27:37.627368 17067 net.cpp:152] Setting up conv1
I0426 11:27:37.627387 17067 net.cpp:158] Top shape: 128 20 24 24 (1474560)
I0426 11:27:37.627393 17067 net.cpp:164] Memory required for data: 6300160
I0426 11:27:37.627440 17067 layer_factory.hpp:77] Creating layer pool1
I0426 11:27:37.627462 17067 layer.hpp:52] blobs_size:0
I0426 11:27:37.627475 17067 net.cpp:112] Creating Layer pool1
I0426 11:27:37.627482 17067 net.cpp:418] pool1 <- conv1
I0426 11:27:37.627506 17067 net.cpp:375] pool1 -> pool1
I0426 11:27:37.627604 17067 net.cpp:152] Setting up pool1
I0426 11:27:37.627624 17067 net.cpp:158] Top shape: 128 20 12 12 (368640)
I0426 11:27:37.627629 17067 net.cpp:164] Memory required for data: 7774720
I0426 11:27:37.627636 17067 layer_factory.hpp:77] Creating layer conv2
I0426 11:27:37.627655 17067 layer.hpp:52] blobs_size:0
I0426 11:27:37.627665 17067 net.cpp:112] Creating Layer conv2
I0426 11:27:37.627672 17067 net.cpp:418] conv2 <- pool1
I0426 11:27:37.627692 17067 net.cpp:375] conv2 -> conv2
I0426 11:27:37.629892 17067 net.cpp:152] Setting up conv2
I0426 11:27:37.629926 17067 net.cpp:158] Top shape: 128 50 8 8 (409600)
I0426 11:27:37.629936 17067 net.cpp:164] Memory required for data: 9413120
I0426 11:27:37.629961 17067 layer_factory.hpp:77] Creating layer pool2
I0426 11:27:37.629989 17067 layer.hpp:52] blobs_size:0
I0426 11:27:37.630000 17067 net.cpp:112] Creating Layer pool2
I0426 11:27:37.630010 17067 net.cpp:418] pool2 <- conv2
I0426 11:27:37.630030 17067 net.cpp:375] pool2 -> pool2
I0426 11:27:37.630080 17067 net.cpp:152] Setting up pool2
I0426 11:27:37.630094 17067 net.cpp:158] Top shape: 128 50 4 4 (102400)
I0426 11:27:37.630098 17067 net.cpp:164] Memory required for data: 9822720
I0426 11:27:37.630131 17067 layer_factory.hpp:77] Creating layer ip1
I0426 11:27:37.630151 17067 layer.hpp:52] blobs_size:0
I0426 11:27:37.630162 17067 net.cpp:112] Creating Layer ip1
I0426 11:27:37.630168 17067 net.cpp:418] ip1 <- pool2
I0426 11:27:37.630188 17067 net.cpp:375] ip1 -> ip1
I0426 11:27:37.651957 17067 net.cpp:152] Setting up ip1
I0426 11:27:37.651975 17067 net.cpp:158] Top shape: 128 500 (64000)
I0426 11:27:37.651980 17067 net.cpp:164] Memory required for data: 10078720
I0426 11:27:37.652004 17067 layer_factory.hpp:77] Creating layer relu1
I0426 11:27:37.652021 17067 layer.hpp:52] blobs_size:0
I0426 11:27:37.652030 17067 net.cpp:112] Creating Layer relu1
I0426 11:27:37.652037 17067 net.cpp:418] relu1 <- ip1
I0426 11:27:37.652052 17067 net.cpp:363] relu1 -> ip1 (in-place)
I0426 11:27:37.652070 17067 net.cpp:152] Setting up relu1
I0426 11:27:37.652076 17067 net.cpp:158] Top shape: 128 500 (64000)
I0426 11:27:37.652081 17067 net.cpp:164] Memory required for data: 10334720
I0426 11:27:37.652086 17067 layer_factory.hpp:77] Creating layer ip2
I0426 11:27:37.652099 17067 layer.hpp:52] blobs_size:0
I0426 11:27:37.652107 17067 net.cpp:112] Creating Layer ip2
I0426 11:27:37.652112 17067 net.cpp:418] ip2 <- ip1
I0426 11:27:37.652128 17067 net.cpp:375] ip2 -> ip2
I0426 11:27:37.653053 17067 net.cpp:152] Setting up ip2
I0426 11:27:37.653069 17067 net.cpp:158] Top shape: 128 10 (1280)
I0426 11:27:37.653074 17067 net.cpp:164] Memory required for data: 10339840
I0426 11:27:37.653089 17067 layer_factory.hpp:77] Creating layer loss
I0426 11:27:37.653106 17067 layer.hpp:52] blobs_size:0
I0426 11:27:37.653120 17067 net.cpp:112] Creating Layer loss
I0426 11:27:37.653128 17067 net.cpp:418] loss <- ip2
I0426 11:27:37.653141 17067 net.cpp:418] loss <- label
I0426 11:27:37.653156 17067 net.cpp:375] loss -> loss
…
I0426 11:27:37.654922 17067 base_data_layer.cpp:22] LayerSetUp
I0426 11:27:37.654928 17067 data_layer.cpp:29] DataLayerSetUp
I0426 11:27:37.655719 17077 db_lmdb.cpp:38] Opened lmdb examples/mnist/mnist_test_lmdb
I0426 11:27:37.655860 17067 data_layer.cpp:43] output data size: 128,1,28,28
I0426 11:27:37.655936 17067 base_data_layer.cpp:49] LayerSetUp12
I0426 11:27:37.657073 17067 base_data_layer.cpp:70] Initializing prefetch
I0426 11:27:37.657536 17067 base_data_layer.cpp:73] Prefetch initialized.
I0426 11:27:37.657546 17067 net.cpp:152] Setting up mnist
I0426 11:27:37.657555 17067 net.cpp:158] Top shape: 128 1 28 28 (100352)
I0426 11:27:37.657562 17067 net.cpp:158] Top shape: 128 (128)
I0426 11:27:37.657567 17067 net.cpp:164] Memory required for data: 401920
I0426 11:27:37.657577 17067 layer_factory.hpp:77] Creating layer label_mnist_1_split
I0426 11:27:37.657594 17067 layer.hpp:52] blobs_size:0
I0426 11:27:37.657606 17067 net.cpp:112] Creating Layer label_mnist_1_split
I0426 11:27:37.657614 17067 net.cpp:418] label_mnist_1_split <- label
I0426 11:27:37.657632 17067 net.cpp:375] label_mnist_1_split -> label_mnist_1_split_0
I0426 11:27:37.657654 17067 net.cpp:375] label_mnist_1_split -> label_mnist_1_split_1
I0426 11:27:37.657703 17067 net.cpp:152] Setting up label_mnist_1_split
I0426 11:27:37.657716 17067 net.cpp:158] Top shape: 128 (128)
I0426 11:27:37.657722 17067 net.cpp:158] Top shape: 128 (128)
I0426 11:27:37.657727 17067 net.cpp:164] Memory required for data: 402944
I0426 11:27:37.657733 17067 layer_factory.hpp:77] Creating layer conv1
I0426 11:27:37.657750 17067 layer.hpp:52] blobs_size:0
I0426 11:27:37.657762 17067 net.cpp:112] Creating Layer conv1
I0426 11:27:37.657768 17067 net.cpp:418] conv1 <- data
I0426 11:27:37.657793 17067 net.cpp:375] conv1 -> conv1
I0426 11:27:37.658260 17067 net.cpp:152] Setting up conv1
I0426 11:27:37.658288 17067 net.cpp:158] Top shape: 128 20 24 24 (1474560)
I0426 11:27:37.658293 17067 net.cpp:164] Memory required for data: 6301184
I0426 11:27:37.658324 17067 layer_factory.hpp:77] Creating layer pool1
I0426 11:27:37.658341 17067 layer.hpp:52] blobs_size:0
I0426 11:27:37.658349 17067 net.cpp:112] Creating Layer pool1
I0426 11:27:37.658356 17067 net.cpp:418] pool1 <- conv1
I0426 11:27:37.658373 17067 net.cpp:375] pool1 -> pool1
I0426 11:27:37.658435 17067 net.cpp:152] Setting up pool1
I0426 11:27:37.658448 17067 net.cpp:158] Top shape: 128 20 12 12 (368640)
I0426 11:27:37.658453 17067 net.cpp:164] Memory required for data: 7775744
I0426 11:27:37.658460 17067 layer_factory.hpp:77] Creating layer conv2
I0426 11:27:37.658481 17067 layer.hpp:52] blobs_size:0
I0426 11:27:37.658494 17067 net.cpp:112] Creating Layer conv2
I0426 11:27:37.658502 17067 net.cpp:418] conv2 <- pool1
I0426 11:27:37.658537 17067 net.cpp:375] conv2 -> conv2
I0426 11:27:37.660203 17067 net.cpp:152] Setting up conv2
I0426 11:27:37.660230 17067 net.cpp:158] Top shape: 128 50 8 8 (409600)
I0426 11:27:37.660238 17067 net.cpp:164] Memory required for data: 9414144
I0426 11:27:37.660262 17067 layer_factory.hpp:77] Creating layer pool2
I0426 11:27:37.660284 17067 layer.hpp:52] blobs_size:0
I0426 11:27:37.660291 17067 net.cpp:112] Creating Layer pool2
I0426 11:27:37.660300 17067 net.cpp:418] pool2 <- conv2
I0426 11:27:37.660318 17067 net.cpp:375] pool2 -> pool2
I0426 11:27:37.660377 17067 net.cpp:152] Setting up pool2
I0426 11:27:37.660390 17067 net.cpp:158] Top shape: 128 50 4 4 (102400)
I0426 11:27:37.660395 17067 net.cpp:164] Memory required for data: 9823744
I0426 11:27:37.660404 17067 layer_factory.hpp:77] Creating layer ip1
I0426 11:27:37.660420 17067 layer.hpp:52] blobs_size:0
I0426 11:27:37.660428 17067 net.cpp:112] Creating Layer ip1
I0426 11:27:37.660436 17067 net.cpp:418] ip1 <- pool2
I0426 11:27:37.660460 17067 net.cpp:375] ip1 -> ip1
I0426 11:27:37.686832 17067 net.cpp:152] Setting up ip1
I0426 11:27:37.686863 17067 net.cpp:158] Top shape: 128 500 (64000)
I0426 11:27:37.686869 17067 net.cpp:164] Memory required for data: 10079744
I0426 11:27:37.686894 17067 layer_factory.hpp:77] Creating layer relu1
I0426 11:27:37.686913 17067 layer.hpp:52] blobs_size:0
I0426 11:27:37.686920 17067 net.cpp:112] Creating Layer relu1
I0426 11:27:37.686928 17067 net.cpp:418] relu1 <- ip1
I0426 11:27:37.686944 17067 net.cpp:363] relu1 -> ip1 (in-place)
I0426 11:27:37.686961 17067 net.cpp:152] Setting up relu1
I0426 11:27:37.686982 17067 net.cpp:158] Top shape: 128 500 (64000)
I0426 11:27:37.686988 17067 net.cpp:164] Memory required for data: 10335744
I0426 11:27:37.686995 17067 layer_factory.hpp:77] Creating layer ip2
I0426 11:27:37.687011 17067 layer.hpp:52] blobs_size:0
I0426 11:27:37.687021 17067 net.cpp:112] Creating Layer ip2
I0426 11:27:37.687029 17067 net.cpp:418] ip2 <- ip1
I0426 11:27:37.687052 17067 net.cpp:375] ip2 -> ip2
I0426 11:27:37.687494 17067 net.cpp:152] Setting up ip2
I0426 11:27:37.687520 17067 net.cpp:158] Top shape: 128 10 (1280)
I0426 11:27:37.687526 17067 net.cpp:164] Memory required for data: 10340864
I0426 11:27:37.687541 17067 layer_factory.hpp:77] Creating layer ip2_ip2_0_split
I0426 11:27:37.687553 17067 layer.hpp:52] blobs_size:0
I0426 11:27:37.687561 17067 net.cpp:112] Creating Layer ip2_ip2_0_split
I0426 11:27:37.687567 17067 net.cpp:418] ip2_ip2_0_split <- ip2
I0426 11:27:37.687584 17067 net.cpp:375] ip2_ip2_0_split -> ip2_ip2_0_split_0
I0426 11:27:37.687602 17067 net.cpp:375] ip2_ip2_0_split -> ip2_ip2_0_split_1
I0426 11:27:37.687647 17067 net.cpp:152] Setting up ip2_ip2_0_split
I0426 11:27:37.687659 17067 net.cpp:158] Top shape: 128 10 (1280)
I0426 11:27:37.687666 17067 net.cpp:158] Top shape: 128 10 (1280)
I0426 11:27:37.687671 17067 net.cpp:164] Memory required for data: 10351104
I0426 11:27:37.687678 17067 layer_factory.hpp:77] Creating layer accuracy
I0426 11:27:37.687695 17067 layer.hpp:52] blobs_size:0
I0426 11:27:37.687708 17067 net.cpp:112] Creating Layer accuracy
I0426 11:27:37.687716 17067 net.cpp:418] accuracy <- ip2_ip2_0_split_0
I0426 11:27:37.687731 17067 net.cpp:418] accuracy <- label_mnist_1_split_0
…
