…
I0426 11:41:24.823534 27316 base_data_layer.cpp:22] LayerSetUp
I0426 11:41:24.823575 27316 data_layer.cpp:29] DataLayerSetUp
I0426 11:41:24.824643 27325 db_lmdb.cpp:38] Opened lmdb examples/mnist/mnist_train_lmdb
I0426 11:41:24.859242 27316 data_layer.cpp:43] output data size: 128,1,28,28
I0426 11:41:24.859328 27316 base_data_layer.cpp:49] LayerSetUp12
I0426 11:41:24.861225 27316 base_data_layer.cpp:70] Initializing prefetch
I0426 11:41:24.861310 27316 base_data_layer.cpp:73] Prefetch initialized.
I0426 11:41:24.861325 27316 net.cpp:152] Setting up mnist
I0426 11:41:24.861364 27316 net.cpp:158] Top shape: 128 1 28 28 (100352)
I0426 11:41:24.861376 27316 net.cpp:158] Top shape: 128 (128)
I0426 11:41:24.861382 27316 net.cpp:164] Memory required for data: 401920
I0426 11:41:24.861418 27316 layer_factory.hpp:77] Creating layer conv1
I0426 11:41:24.861482 27316 layer.hpp:52] blobs_size:0
I0426 11:41:24.861527 27316 net.cpp:112] Creating Layer conv1
I0426 11:41:24.861551 27316 net.cpp:418] conv1 <- data
I0426 11:41:24.861613 27316 net.cpp:375] conv1 -> conv1
I0426 11:41:25.036475 27316 net.cpp:152] Setting up conv1
I0426 11:41:25.036532 27316 net.cpp:158] Top shape: 128 20 24 24 (1474560)
I0426 11:41:25.036542 27316 net.cpp:164] Memory required for data: 6300160
I0426 11:41:25.036659 27316 layer_factory.hpp:77] Creating layer pool1
I0426 11:41:25.036712 27316 layer.hpp:52] blobs_size:0
I0426 11:41:25.036738 27316 net.cpp:112] Creating Layer pool1
I0426 11:41:25.036754 27316 net.cpp:418] pool1 <- conv1
I0426 11:41:25.036808 27316 net.cpp:375] pool1 -> pool1
I0426 11:41:25.036934 27316 net.cpp:152] Setting up pool1
I0426 11:41:25.036963 27316 net.cpp:158] Top shape: 128 20 12 12 (368640)
I0426 11:41:25.036970 27316 net.cpp:164] Memory required for data: 7774720
I0426 11:41:25.036979 27316 layer_factory.hpp:77] Creating layer conv2
I0426 11:41:25.037014 27316 layer.hpp:52] blobs_size:0
I0426 11:41:25.037029 27316 net.cpp:112] Creating Layer conv2
I0426 11:41:25.037039 27316 net.cpp:418] conv2 <- pool1
I0426 11:41:25.037065 27316 net.cpp:375] conv2 -> conv2
I0426 11:41:25.040594 27316 cudnn_conv_layer.cpp:193] Reallocating workspace storage: 6000
I0426 11:41:25.040784 27316 net.cpp:152] Setting up conv2
I0426 11:41:25.040807 27316 net.cpp:158] Top shape: 128 50 8 8 (409600)
I0426 11:41:25.040813 27316 net.cpp:164] Memory required for data: 9413120
I0426 11:41:25.040846 27316 layer_factory.hpp:77] Creating layer pool2
I0426 11:41:25.040868 27316 layer.hpp:52] blobs_size:0
I0426 11:41:25.040881 27316 net.cpp:112] Creating Layer pool2
I0426 11:41:25.040891 27316 net.cpp:418] pool2 <- conv2
I0426 11:41:25.040913 27316 net.cpp:375] pool2 -> pool2
I0426 11:41:25.040985 27316 net.cpp:152] Setting up pool2
I0426 11:41:25.041002 27316 net.cpp:158] Top shape: 128 50 4 4 (102400)
I0426 11:41:25.041040 27316 net.cpp:164] Memory required for data: 9822720
I0426 11:41:25.041050 27316 layer_factory.hpp:77] Creating layer ip1
I0426 11:41:25.041075 27316 layer.hpp:52] blobs_size:0
I0426 11:41:25.041088 27316 net.cpp:112] Creating Layer ip1
I0426 11:41:25.041097 27316 net.cpp:418] ip1 <- pool2
I0426 11:41:25.041121 27316 net.cpp:375] ip1 -> ip1
I0426 11:41:25.070005 27316 net.cpp:152] Setting up ip1
I0426 11:41:25.070029 27316 net.cpp:158] Top shape: 128 500 (64000)
I0426 11:41:25.070036 27316 net.cpp:164] Memory required for data: 10078720
I0426 11:41:25.070067 27316 layer_factory.hpp:77] Creating layer relu1
I0426 11:41:25.070098 27316 layer.hpp:52] blobs_size:0
I0426 11:41:25.070111 27316 net.cpp:112] Creating Layer relu1
I0426 11:41:25.070121 27316 net.cpp:418] relu1 <- ip1
I0426 11:41:25.070140 27316 net.cpp:363] relu1 -> ip1 (in-place)
I0426 11:41:25.070358 27316 net.cpp:152] Setting up relu1
I0426 11:41:25.070376 27316 net.cpp:158] Top shape: 128 500 (64000)
I0426 11:41:25.070382 27316 net.cpp:164] Memory required for data: 10334720
I0426 11:41:25.070391 27316 layer_factory.hpp:77] Creating layer ip2
I0426 11:41:25.070411 27316 layer.hpp:52] blobs_size:0
I0426 11:41:25.070420 27316 net.cpp:112] Creating Layer ip2
I0426 11:41:25.070428 27316 net.cpp:418] ip2 <- ip1
I0426 11:41:25.070453 27316 net.cpp:375] ip2 -> ip2
I0426 11:41:25.071595 27316 net.cpp:152] Setting up ip2
I0426 11:41:25.071619 27316 net.cpp:158] Top shape: 128 10 (1280)
I0426 11:41:25.071626 27316 net.cpp:164] Memory required for data: 10339840
I0426 11:41:25.071645 27316 layer_factory.hpp:77] Creating layer loss
I0426 11:41:25.071671 27316 layer.hpp:52] blobs_size:0
I0426 11:41:25.071691 27316 net.cpp:112] Creating Layer loss
I0426 11:41:25.071702 27316 net.cpp:418] loss <- ip2
I0426 11:41:25.071720 27316 net.cpp:418] loss <- label
I0426 11:41:25.071741 27316 net.cpp:375] loss -> loss
…
I0426 11:41:25.074870 27316 base_data_layer.cpp:22] LayerSetUp
I0426 11:41:25.074880 27316 data_layer.cpp:29] DataLayerSetUp
I0426 11:41:25.076431 27328 db_lmdb.cpp:38] Opened lmdb examples/mnist/mnist_test_lmdb
I0426 11:41:25.076714 27316 data_layer.cpp:43] output data size: 128,1,28,28
I0426 11:41:25.076858 27316 base_data_layer.cpp:49] LayerSetUp12
I0426 11:41:25.078910 27316 base_data_layer.cpp:70] Initializing prefetch
I0426 11:41:25.079054 27316 base_data_layer.cpp:73] Prefetch initialized.
I0426 11:41:25.079074 27316 net.cpp:152] Setting up mnist
I0426 11:41:25.079104 27316 net.cpp:158] Top shape: 128 1 28 28 (100352)
I0426 11:41:25.079123 27316 net.cpp:158] Top shape: 128 (128)
I0426 11:41:25.079134 27316 net.cpp:164] Memory required for data: 401920
I0426 11:41:25.079169 27316 layer_factory.hpp:77] Creating layer label_mnist_1_split
I0426 11:41:25.079216 27316 layer.hpp:52] blobs_size:0
I0426 11:41:25.079249 27316 net.cpp:112] Creating Layer label_mnist_1_split
I0426 11:41:25.079270 27316 net.cpp:418] label_mnist_1_split <- label
I0426 11:41:25.079319 27316 net.cpp:375] label_mnist_1_split -> label_mnist_1_split_0
I0426 11:41:25.079380 27316 net.cpp:375] label_mnist_1_split -> label_mnist_1_split_1
I0426 11:41:25.079509 27316 net.cpp:152] Setting up label_mnist_1_split
I0426 11:41:25.079543 27316 net.cpp:158] Top shape: 128 (128)
I0426 11:41:25.079560 27316 net.cpp:158] Top shape: 128 (128)
I0426 11:41:25.079571 27316 net.cpp:164] Memory required for data: 402944
I0426 11:41:25.079587 27316 layer_factory.hpp:77] Creating layer conv1
I0426 11:41:25.079635 27316 layer.hpp:52] blobs_size:0
I0426 11:41:25.079666 27316 net.cpp:112] Creating Layer conv1
I0426 11:41:25.079682 27316 net.cpp:418] conv1 <- data
I0426 11:41:25.079730 27316 net.cpp:375] conv1 -> conv1
I0426 11:41:25.081812 27316 net.cpp:152] Setting up conv1
I0426 11:41:25.081840 27316 net.cpp:158] Top shape: 128 20 24 24 (1474560)
I0426 11:41:25.081848 27316 net.cpp:164] Memory required for data: 6301184
I0426 11:41:25.081889 27316 layer_factory.hpp:77] Creating layer pool1
I0426 11:41:25.081914 27316 layer.hpp:52] blobs_size:0
I0426 11:41:25.081923 27316 net.cpp:112] Creating Layer pool1
I0426 11:41:25.081933 27316 net.cpp:418] pool1 <- conv1
I0426 11:41:25.081955 27316 net.cpp:375] pool1 -> pool1
I0426 11:41:25.082033 27316 net.cpp:152] Setting up pool1
I0426 11:41:25.082049 27316 net.cpp:158] Top shape: 128 20 12 12 (368640)
I0426 11:41:25.082056 27316 net.cpp:164] Memory required for data: 7775744
I0426 11:41:25.082064 27316 layer_factory.hpp:77] Creating layer conv2
I0426 11:41:25.082098 27316 layer.hpp:52] blobs_size:0
I0426 11:41:25.082121 27316 net.cpp:112] Creating Layer conv2
I0426 11:41:25.082131 27316 net.cpp:418] conv2 <- pool1
I0426 11:41:25.082159 27316 net.cpp:375] conv2 -> conv2
I0426 11:41:25.085021 27316 cudnn_conv_layer.cpp:193] Reallocating workspace storage: 6000
I0426 11:41:25.085062 27316 net.cpp:152] Setting up conv2
I0426 11:41:25.085088 27316 net.cpp:158] Top shape: 128 50 8 8 (409600)
I0426 11:41:25.085095 27316 net.cpp:164] Memory required for data: 9414144
I0426 11:41:25.085126 27316 layer_factory.hpp:77] Creating layer pool2
I0426 11:41:25.085147 27316 layer.hpp:52] blobs_size:0
I0426 11:41:25.085156 27316 net.cpp:112] Creating Layer pool2
I0426 11:41:25.085165 27316 net.cpp:418] pool2 <- conv2
I0426 11:41:25.085192 27316 net.cpp:375] pool2 -> pool2
I0426 11:41:25.085268 27316 net.cpp:152] Setting up pool2
I0426 11:41:25.085285 27316 net.cpp:158] Top shape: 128 50 4 4 (102400)
I0426 11:41:25.085291 27316 net.cpp:164] Memory required for data: 9823744
I0426 11:41:25.085315 27316 layer_factory.hpp:77] Creating layer ip1
I0426 11:41:25.085353 27316 layer.hpp:52] blobs_size:0
I0426 11:41:25.085367 27316 net.cpp:112] Creating Layer ip1
I0426 11:41:25.085382 27316 net.cpp:418] ip1 <- pool2
I0426 11:41:25.085443 27316 net.cpp:375] ip1 -> ip1
I0426 11:41:25.119470 27316 net.cpp:152] Setting up ip1
I0426 11:41:25.119498 27316 net.cpp:158] Top shape: 128 500 (64000)
I0426 11:41:25.119504 27316 net.cpp:164] Memory required for data: 10079744
I0426 11:41:25.119535 27316 layer_factory.hpp:77] Creating layer relu1
I0426 11:41:25.119554 27316 layer.hpp:52] blobs_size:0
I0426 11:41:25.119562 27316 net.cpp:112] Creating Layer relu1
I0426 11:41:25.119593 27316 net.cpp:418] relu1 <- ip1
I0426 11:41:25.119616 27316 net.cpp:363] relu1 -> ip1 (in-place)
I0426 11:41:25.119971 27316 net.cpp:152] Setting up relu1
I0426 11:41:25.119992 27316 net.cpp:158] Top shape: 128 500 (64000)
I0426 11:41:25.119998 27316 net.cpp:164] Memory required for data: 10335744
I0426 11:41:25.120007 27316 layer_factory.hpp:77] Creating layer ip2
I0426 11:41:25.120028 27316 layer.hpp:52] blobs_size:0
I0426 11:41:25.120043 27316 net.cpp:112] Creating Layer ip2
I0426 11:41:25.120051 27316 net.cpp:418] ip2 <- ip1
I0426 11:41:25.120081 27316 net.cpp:375] ip2 -> ip2
I0426 11:41:25.120609 27316 net.cpp:152] Setting up ip2
I0426 11:41:25.120628 27316 net.cpp:158] Top shape: 128 10 (1280)
I0426 11:41:25.120635 27316 net.cpp:164] Memory required for data: 10340864
I0426 11:41:25.120652 27316 layer_factory.hpp:77] Creating layer ip2_ip2_0_split
I0426 11:41:25.120672 27316 layer.hpp:52] blobs_size:0
I0426 11:41:25.120681 27316 net.cpp:112] Creating Layer ip2_ip2_0_split
I0426 11:41:25.120689 27316 net.cpp:418] ip2_ip2_0_split <- ip2
I0426 11:41:25.120709 27316 net.cpp:375] ip2_ip2_0_split -> ip2_ip2_0_split_0
I0426 11:41:25.120731 27316 net.cpp:375] ip2_ip2_0_split -> ip2_ip2_0_split_1
I0426 11:41:25.120807 27316 net.cpp:152] Setting up ip2_ip2_0_split
I0426 11:41:25.120823 27316 net.cpp:158] Top shape: 128 10 (1280)
I0426 11:41:25.120831 27316 net.cpp:158] Top shape: 128 10 (1280)
I0426 11:41:25.120836 27316 net.cpp:164] Memory required for data: 10351104
I0426 11:41:25.120844 27316 layer_factory.hpp:77] Creating layer accuracy
I0426 11:41:25.120867 27316 layer.hpp:52] blobs_size:0
I0426 11:41:25.120880 27316 net.cpp:112] Creating Layer accuracy
I0426 11:41:25.120888 27316 net.cpp:418] accuracy <- ip2_ip2_0_split_0
I0426 11:41:25.120906 27316 net.cpp:418] accuracy <- label_mnist_1_split_0
…
